{
  "nodes": [
    {
      "op": "null", 
      "name": "data/0", 
      "inputs": []
    }, 
    {
      "op": "null", 
      "name": "embed_weight", 
      "inputs": []
    }, 
    {
      "op": "Embedding", 
      "name": "t0_embed", 
      "attrs": {
        "input_dim": "3043", 
        "output_dim": "256"
      }, 
      "inputs": [[0, 0, 0], [1, 0, 0]]
    }, 
    {
      "op": "null", 
      "name": "l0_i2h_weight", 
      "inputs": []
    }, 
    {
      "op": "null", 
      "name": "l0_i2h_bias", 
      "inputs": []
    }, 
    {
      "op": "FullyConnected", 
      "name": "t0_l0_i2h", 
      "attrs": {"num_hidden": "2048"}, 
      "inputs": [[2, 0, 0], [3, 0, 0], [4, 0, 0]]
    }, 
    {
      "op": "null", 
      "name": "l0_init_h", 
      "inputs": []
    }, 
    {
      "op": "null", 
      "name": "l0_h2h_weight", 
      "inputs": []
    }, 
    {
      "op": "null", 
      "name": "l0_h2h_bias", 
      "inputs": []
    }, 
    {
      "op": "FullyConnected", 
      "name": "t0_l0_h2h", 
      "attrs": {"num_hidden": "2048"}, 
      "inputs": [[6, 0, 0], [7, 0, 0], [8, 0, 0]]
    }, 
    {
      "op": "elemwise_add", 
      "name": "_plus0", 
      "inputs": [[5, 0, 0], [9, 0, 0]]
    }, 
    {
      "op": "SliceChannel", 
      "name": "t0_l0_slice", 
      "attrs": {"num_outputs": "4"}, 
      "inputs": [[10, 0, 0]]
    }, 
    {
      "op": "Activation", 
      "name": "activation3", 
      "attrs": {"act_type": "sigmoid"}, 
      "inputs": [[11, 3, 0]]
    }, 
    {
      "op": "Activation", 
      "name": "activation2", 
      "attrs": {"act_type": "sigmoid"}, 
      "inputs": [[11, 2, 0]]
    }, 
    {
      "op": "null", 
      "name": "l0_init_c", 
      "inputs": []
    }, 
    {
      "op": "elemwise_mul", 
      "name": "_mul0", 
      "inputs": [[13, 0, 0], [14, 0, 0]]
    }, 
    {
      "op": "Activation", 
      "name": "activation0", 
      "attrs": {"act_type": "sigmoid"}, 
      "inputs": [[11, 0, 0]]
    }, 
    {
      "op": "Activation", 
      "name": "activation1", 
      "attrs": {"act_type": "tanh"}, 
      "inputs": [[11, 1, 0]]
    }, 
    {
      "op": "elemwise_mul", 
      "name": "_mul1", 
      "inputs": [[16, 0, 0], [17, 0, 0]]
    }, 
    {
      "op": "elemwise_add", 
      "name": "_plus1", 
      "inputs": [[15, 0, 0], [18, 0, 0]]
    }, 
    {
      "op": "Activation", 
      "name": "activation4", 
      "attrs": {"act_type": "tanh"}, 
      "inputs": [[19, 0, 0]]
    }, 
    {
      "op": "elemwise_mul", 
      "name": "_mul2", 
      "inputs": [[12, 0, 0], [20, 0, 0]]
    }, 
    {
      "op": "Dropout", 
      "name": "dropout0", 
      "attrs": {"p": "0.2"}, 
      "inputs": [[21, 0, 0]]
    }, 
    {
      "op": "null", 
      "name": "l1_i2h_weight", 
      "inputs": []
    }, 
    {
      "op": "null", 
      "name": "l1_i2h_bias", 
      "inputs": []
    }, 
    {
      "op": "FullyConnected", 
      "name": "t0_l1_i2h", 
      "attrs": {"num_hidden": "2048"}, 
      "inputs": [[22, 0, 0], [23, 0, 0], [24, 0, 0]]
    }, 
    {
      "op": "null", 
      "name": "l1_init_h", 
      "inputs": []
    }, 
    {
      "op": "null", 
      "name": "l1_h2h_weight", 
      "inputs": []
    }, 
    {
      "op": "null", 
      "name": "l1_h2h_bias", 
      "inputs": []
    }, 
    {
      "op": "FullyConnected", 
      "name": "t0_l1_h2h", 
      "attrs": {"num_hidden": "2048"}, 
      "inputs": [[26, 0, 0], [27, 0, 0], [28, 0, 0]]
    }, 
    {
      "op": "elemwise_add", 
      "name": "_plus2", 
      "inputs": [[25, 0, 0], [29, 0, 0]]
    }, 
    {
      "op": "SliceChannel", 
      "name": "t0_l1_slice", 
      "attrs": {"num_outputs": "4"}, 
      "inputs": [[30, 0, 0]]
    }, 
    {
      "op": "Activation", 
      "name": "activation8", 
      "attrs": {"act_type": "sigmoid"}, 
      "inputs": [[31, 3, 0]]
    }, 
    {
      "op": "Activation", 
      "name": "activation7", 
      "attrs": {"act_type": "sigmoid"}, 
      "inputs": [[31, 2, 0]]
    }, 
    {
      "op": "null", 
      "name": "l1_init_c", 
      "inputs": []
    }, 
    {
      "op": "elemwise_mul", 
      "name": "_mul3", 
      "inputs": [[33, 0, 0], [34, 0, 0]]
    }, 
    {
      "op": "Activation", 
      "name": "activation5", 
      "attrs": {"act_type": "sigmoid"}, 
      "inputs": [[31, 0, 0]]
    }, 
    {
      "op": "Activation", 
      "name": "activation6", 
      "attrs": {"act_type": "tanh"}, 
      "inputs": [[31, 1, 0]]
    }, 
    {
      "op": "elemwise_mul", 
      "name": "_mul4", 
      "inputs": [[36, 0, 0], [37, 0, 0]]
    }, 
    {
      "op": "elemwise_add", 
      "name": "_plus3", 
      "inputs": [[35, 0, 0], [38, 0, 0]]
    }, 
    {
      "op": "Activation", 
      "name": "activation9", 
      "attrs": {"act_type": "tanh"}, 
      "inputs": [[39, 0, 0]]
    }, 
    {
      "op": "elemwise_mul", 
      "name": "_mul5", 
      "inputs": [[32, 0, 0], [40, 0, 0]]
    }, 
    {
      "op": "Dropout", 
      "name": "dropout1", 
      "attrs": {"p": "0.2"}, 
      "inputs": [[41, 0, 0]]
    }, 
    {
      "op": "null", 
      "name": "l2_i2h_weight", 
      "inputs": []
    }, 
    {
      "op": "null", 
      "name": "l2_i2h_bias", 
      "inputs": []
    }, 
    {
      "op": "FullyConnected", 
      "name": "t0_l2_i2h", 
      "attrs": {"num_hidden": "2048"}, 
      "inputs": [[42, 0, 0], [43, 0, 0], [44, 0, 0]]
    }, 
    {
      "op": "null", 
      "name": "l2_init_h", 
      "inputs": []
    }, 
    {
      "op": "null", 
      "name": "l2_h2h_weight", 
      "inputs": []
    }, 
    {
      "op": "null", 
      "name": "l2_h2h_bias", 
      "inputs": []
    }, 
    {
      "op": "FullyConnected", 
      "name": "t0_l2_h2h", 
      "attrs": {"num_hidden": "2048"}, 
      "inputs": [[46, 0, 0], [47, 0, 0], [48, 0, 0]]
    }, 
    {
      "op": "elemwise_add", 
      "name": "_plus4", 
      "inputs": [[45, 0, 0], [49, 0, 0]]
    }, 
    {
      "op": "SliceChannel", 
      "name": "t0_l2_slice", 
      "attrs": {"num_outputs": "4"}, 
      "inputs": [[50, 0, 0]]
    }, 
    {
      "op": "Activation", 
      "name": "activation13", 
      "attrs": {"act_type": "sigmoid"}, 
      "inputs": [[51, 3, 0]]
    }, 
    {
      "op": "Activation", 
      "name": "activation12", 
      "attrs": {"act_type": "sigmoid"}, 
      "inputs": [[51, 2, 0]]
    }, 
    {
      "op": "null", 
      "name": "l2_init_c", 
      "inputs": []
    }, 
    {
      "op": "elemwise_mul", 
      "name": "_mul6", 
      "inputs": [[53, 0, 0], [54, 0, 0]]
    }, 
    {
      "op": "Activation", 
      "name": "activation10", 
      "attrs": {"act_type": "sigmoid"}, 
      "inputs": [[51, 0, 0]]
    }, 
    {
      "op": "Activation", 
      "name": "activation11", 
      "attrs": {"act_type": "tanh"}, 
      "inputs": [[51, 1, 0]]
    }, 
    {
      "op": "elemwise_mul", 
      "name": "_mul7", 
      "inputs": [[56, 0, 0], [57, 0, 0]]
    }, 
    {
      "op": "elemwise_add", 
      "name": "_plus5", 
      "inputs": [[55, 0, 0], [58, 0, 0]]
    }, 
    {
      "op": "Activation", 
      "name": "activation14", 
      "attrs": {"act_type": "tanh"}, 
      "inputs": [[59, 0, 0]]
    }, 
    {
      "op": "elemwise_mul", 
      "name": "_mul8", 
      "inputs": [[52, 0, 0], [60, 0, 0]]
    }, 
    {
      "op": "Dropout", 
      "name": "dropout2", 
      "attrs": {"p": "0.2"}, 
      "inputs": [[61, 0, 0]]
    }, 
    {
      "op": "null", 
      "name": "cls_weight", 
      "inputs": []
    }, 
    {
      "op": "null", 
      "name": "cls_bias", 
      "inputs": []
    }, 
    {
      "op": "FullyConnected", 
      "name": "fullyconnected0", 
      "attrs": {"num_hidden": "3043"}, 
      "inputs": [[62, 0, 0], [63, 0, 0], [64, 0, 0]]
    }, 
    {
      "op": "null", 
      "name": "label/0", 
      "inputs": []
    }, 
    {
      "op": "SoftmaxOutput", 
      "name": "t0_sm", 
      "inputs": [[65, 0, 0], [66, 0, 0]]
    }, 
    {
      "op": "null", 
      "name": "data/1", 
      "inputs": []
    }, 
    {
      "op": "Embedding", 
      "name": "t1_embed", 
      "attrs": {
        "input_dim": "3043", 
        "output_dim": "256"
      }, 
      "inputs": [[68, 0, 0], [1, 0, 0]]
    }, 
    {
      "op": "FullyConnected", 
      "name": "t1_l0_i2h", 
      "attrs": {"num_hidden": "2048"}, 
      "inputs": [[69, 0, 0], [3, 0, 0], [4, 0, 0]]
    }, 
    {
      "op": "FullyConnected", 
      "name": "t1_l0_h2h", 
      "attrs": {"num_hidden": "2048"}, 
      "inputs": [[21, 0, 0], [7, 0, 0], [8, 0, 0]]
    }, 
    {
      "op": "elemwise_add", 
      "name": "_plus6", 
      "inputs": [[70, 0, 0], [71, 0, 0]]
    }, 
    {
      "op": "SliceChannel", 
      "name": "t1_l0_slice", 
      "attrs": {"num_outputs": "4"}, 
      "inputs": [[72, 0, 0]]
    }, 
    {
      "op": "Activation", 
      "name": "activation18", 
      "attrs": {"act_type": "sigmoid"}, 
      "inputs": [[73, 3, 0]]
    }, 
    {
      "op": "Activation", 
      "name": "activation17", 
      "attrs": {"act_type": "sigmoid"}, 
      "inputs": [[73, 2, 0]]
    }, 
    {
      "op": "elemwise_mul", 
      "name": "_mul9", 
      "inputs": [[75, 0, 0], [19, 0, 0]]
    }, 
    {
      "op": "Activation", 
      "name": "activation15", 
      "attrs": {"act_type": "sigmoid"}, 
      "inputs": [[73, 0, 0]]
    }, 
    {
      "op": "Activation", 
      "name": "activation16", 
      "attrs": {"act_type": "tanh"}, 
      "inputs": [[73, 1, 0]]
    }, 
    {
      "op": "elemwise_mul", 
      "name": "_mul10", 
      "inputs": [[77, 0, 0], [78, 0, 0]]
    }, 
    {
      "op": "elemwise_add", 
      "name": "_plus7", 
      "inputs": [[76, 0, 0], [79, 0, 0]]
    }, 
    {
      "op": "Activation", 
      "name": "activation19", 
      "attrs": {"act_type": "tanh"}, 
      "inputs": [[80, 0, 0]]
    }, 
    {
      "op": "elemwise_mul", 
      "name": "_mul11", 
      "inputs": [[74, 0, 0], [81, 0, 0]]
    }, 
    {
      "op": "Dropout", 
      "name": "dropout3", 
      "attrs": {"p": "0.2"}, 
      "inputs": [[82, 0, 0]]
    }, 
    {
      "op": "FullyConnected", 
      "name": "t1_l1_i2h", 
      "attrs": {"num_hidden": "2048"}, 
      "inputs": [[83, 0, 0], [23, 0, 0], [24, 0, 0]]
    }, 
    {
      "op": "FullyConnected", 
      "name": "t1_l1_h2h", 
      "attrs": {"num_hidden": "2048"}, 
      "inputs": [[41, 0, 0], [27, 0, 0], [28, 0, 0]]
    }, 
    {
      "op": "elemwise_add", 
      "name": "_plus8", 
      "inputs": [[84, 0, 0], [85, 0, 0]]
    }, 
    {
      "op": "SliceChannel", 
      "name": "t1_l1_slice", 
      "attrs": {"num_outputs": "4"}, 
      "inputs": [[86, 0, 0]]
    }, 
    {
      "op": "Activation", 
      "name": "activation23", 
      "attrs": {"act_type": "sigmoid"}, 
      "inputs": [[87, 3, 0]]
    }, 
    {
      "op": "Activation", 
      "name": "activation22", 
      "attrs": {"act_type": "sigmoid"}, 
      "inputs": [[87, 2, 0]]
    }, 
    {
      "op": "elemwise_mul", 
      "name": "_mul12", 
      "inputs": [[89, 0, 0], [39, 0, 0]]
    }, 
    {
      "op": "Activation", 
      "name": "activation20", 
      "attrs": {"act_type": "sigmoid"}, 
      "inputs": [[87, 0, 0]]
    }, 
    {
      "op": "Activation", 
      "name": "activation21", 
      "attrs": {"act_type": "tanh"}, 
      "inputs": [[87, 1, 0]]
    }, 
    {
      "op": "elemwise_mul", 
      "name": "_mul13", 
      "inputs": [[91, 0, 0], [92, 0, 0]]
    }, 
    {
      "op": "elemwise_add", 
      "name": "_plus9", 
      "inputs": [[90, 0, 0], [93, 0, 0]]
    }, 
    {
      "op": "Activation", 
      "name": "activation24", 
      "attrs": {"act_type": "tanh"}, 
      "inputs": [[94, 0, 0]]
    }, 
    {
      "op": "elemwise_mul", 
      "name": "_mul14", 
      "inputs": [[88, 0, 0], [95, 0, 0]]
    }, 
    {
      "op": "Dropout", 
      "name": "dropout4", 
      "attrs": {"p": "0.2"}, 
      "inputs": [[96, 0, 0]]
    }, 
    {
      "op": "FullyConnected", 
      "name": "t1_l2_i2h", 
      "attrs": {"num_hidden": "2048"}, 
      "inputs": [[97, 0, 0], [43, 0, 0], [44, 0, 0]]
    }, 
    {
      "op": "FullyConnected", 
      "name": "t1_l2_h2h", 
      "attrs": {"num_hidden": "2048"}, 
      "inputs": [[61, 0, 0], [47, 0, 0], [48, 0, 0]]
    }, 
    {
      "op": "elemwise_add", 
      "name": "_plus10", 
      "inputs": [[98, 0, 0], [99, 0, 0]]
    }, 
    {
      "op": "SliceChannel", 
      "name": "t1_l2_slice", 
      "attrs": {"num_outputs": "4"}, 
      "inputs": [[100, 0, 0]]
    }, 
    {
      "op": "Activation", 
      "name": "activation28", 
      "attrs": {"act_type": "sigmoid"}, 
      "inputs": [[101, 3, 0]]
    }, 
    {
      "op": "Activation", 
      "name": "activation27", 
      "attrs": {"act_type": "sigmoid"}, 
      "inputs": [[101, 2, 0]]
    }, 
    {
      "op": "elemwise_mul", 
      "name": "_mul15", 
      "inputs": [[103, 0, 0], [59, 0, 0]]
    }, 
    {
      "op": "Activation", 
      "name": "activation25", 
      "attrs": {"act_type": "sigmoid"}, 
      "inputs": [[101, 0, 0]]
    }, 
    {
      "op": "Activation", 
      "name": "activation26", 
      "attrs": {"act_type": "tanh"}, 
      "inputs": [[101, 1, 0]]
    }, 
    {
      "op": "elemwise_mul", 
      "name": "_mul16", 
      "inputs": [[105, 0, 0], [106, 0, 0]]
    }, 
    {
      "op": "elemwise_add", 
      "name": "_plus11", 
      "inputs": [[104, 0, 0], [107, 0, 0]]
    }, 
    {
      "op": "Activation", 
      "name": "activation29", 
      "attrs": {"act_type": "tanh"}, 
      "inputs": [[108, 0, 0]]
    }, 
    {
      "op": "elemwise_mul", 
      "name": "_mul17", 
      "inputs": [[102, 0, 0], [109, 0, 0]]
    }, 
    {
      "op": "Dropout", 
      "name": "dropout5", 
      "attrs": {"p": "0.2"}, 
      "inputs": [[110, 0, 0]]
    }, 
    {
      "op": "FullyConnected", 
      "name": "fullyconnected1", 
      "attrs": {"num_hidden": "3043"}, 
      "inputs": [[111, 0, 0], [63, 0, 0], [64, 0, 0]]
    }, 
    {
      "op": "null", 
      "name": "label/1", 
      "inputs": []
    }, 
    {
      "op": "SoftmaxOutput", 
      "name": "t1_sm", 
      "inputs": [[112, 0, 0], [113, 0, 0]]
    }, 
    {
      "op": "null", 
      "name": "data/2", 
      "inputs": []
    }, 
    {
      "op": "Embedding", 
      "name": "t2_embed", 
      "attrs": {
        "input_dim": "3043", 
        "output_dim": "256"
      }, 
      "inputs": [[115, 0, 0], [1, 0, 0]]
    }, 
    {
      "op": "FullyConnected", 
      "name": "t2_l0_i2h", 
      "attrs": {"num_hidden": "2048"}, 
      "inputs": [[116, 0, 0], [3, 0, 0], [4, 0, 0]]
    }, 
    {
      "op": "FullyConnected", 
      "name": "t2_l0_h2h", 
      "attrs": {"num_hidden": "2048"}, 
      "inputs": [[82, 0, 0], [7, 0, 0], [8, 0, 0]]
    }, 
    {
      "op": "elemwise_add", 
      "name": "_plus12", 
      "inputs": [[117, 0, 0], [118, 0, 0]]
    }, 
    {
      "op": "SliceChannel", 
      "name": "t2_l0_slice", 
      "attrs": {"num_outputs": "4"}, 
      "inputs": [[119, 0, 0]]
    }, 
    {
      "op": "Activation", 
      "name": "activation33", 
      "attrs": {"act_type": "sigmoid"}, 
      "inputs": [[120, 3, 0]]
    }, 
    {
      "op": "Activation", 
      "name": "activation32", 
      "attrs": {"act_type": "sigmoid"}, 
      "inputs": [[120, 2, 0]]
    }, 
    {
      "op": "elemwise_mul", 
      "name": "_mul18", 
      "inputs": [[122, 0, 0], [80, 0, 0]]
    }, 
    {
      "op": "Activation", 
      "name": "activation30", 
      "attrs": {"act_type": "sigmoid"}, 
      "inputs": [[120, 0, 0]]
    }, 
    {
      "op": "Activation", 
      "name": "activation31", 
      "attrs": {"act_type": "tanh"}, 
      "inputs": [[120, 1, 0]]
    }, 
    {
      "op": "elemwise_mul", 
      "name": "_mul19", 
      "inputs": [[124, 0, 0], [125, 0, 0]]
    }, 
    {
      "op": "elemwise_add", 
      "name": "_plus13", 
      "inputs": [[123, 0, 0], [126, 0, 0]]
    }, 
    {
      "op": "Activation", 
      "name": "activation34", 
      "attrs": {"act_type": "tanh"}, 
      "inputs": [[127, 0, 0]]
    }, 
    {
      "op": "elemwise_mul", 
      "name": "_mul20", 
      "inputs": [[121, 0, 0], [128, 0, 0]]
    }, 
    {
      "op": "Dropout", 
      "name": "dropout6", 
      "attrs": {"p": "0.2"}, 
      "inputs": [[129, 0, 0]]
    }, 
    {
      "op": "FullyConnected", 
      "name": "t2_l1_i2h", 
      "attrs": {"num_hidden": "2048"}, 
      "inputs": [[130, 0, 0], [23, 0, 0], [24, 0, 0]]
    }, 
    {
      "op": "FullyConnected", 
      "name": "t2_l1_h2h", 
      "attrs": {"num_hidden": "2048"}, 
      "inputs": [[96, 0, 0], [27, 0, 0], [28, 0, 0]]
    }, 
    {
      "op": "elemwise_add", 
      "name": "_plus14", 
      "inputs": [[131, 0, 0], [132, 0, 0]]
    }, 
    {
      "op": "SliceChannel", 
      "name": "t2_l1_slice", 
      "attrs": {"num_outputs": "4"}, 
      "inputs": [[133, 0, 0]]
    }, 
    {
      "op": "Activation", 
      "name": "activation38", 
      "attrs": {"act_type": "sigmoid"}, 
      "inputs": [[134, 3, 0]]
    }, 
    {
      "op": "Activation", 
      "name": "activation37", 
      "attrs": {"act_type": "sigmoid"}, 
      "inputs": [[134, 2, 0]]
    }, 
    {
      "op": "elemwise_mul", 
      "name": "_mul21", 
      "inputs": [[136, 0, 0], [94, 0, 0]]
    }, 
    {
      "op": "Activation", 
      "name": "activation35", 
      "attrs": {"act_type": "sigmoid"}, 
      "inputs": [[134, 0, 0]]
    }, 
    {
      "op": "Activation", 
      "name": "activation36", 
      "attrs": {"act_type": "tanh"}, 
      "inputs": [[134, 1, 0]]
    }, 
    {
      "op": "elemwise_mul", 
      "name": "_mul22", 
      "inputs": [[138, 0, 0], [139, 0, 0]]
    }, 
    {
      "op": "elemwise_add", 
      "name": "_plus15", 
      "inputs": [[137, 0, 0], [140, 0, 0]]
    }, 
    {
      "op": "Activation", 
      "name": "activation39", 
      "attrs": {"act_type": "tanh"}, 
      "inputs": [[141, 0, 0]]
    }, 
    {
      "op": "elemwise_mul", 
      "name": "_mul23", 
      "inputs": [[135, 0, 0], [142, 0, 0]]
    }, 
    {
      "op": "Dropout", 
      "name": "dropout7", 
      "attrs": {"p": "0.2"}, 
      "inputs": [[143, 0, 0]]
    }, 
    {
      "op": "FullyConnected", 
      "name": "t2_l2_i2h", 
      "attrs": {"num_hidden": "2048"}, 
      "inputs": [[144, 0, 0], [43, 0, 0], [44, 0, 0]]
    }, 
    {
      "op": "FullyConnected", 
      "name": "t2_l2_h2h", 
      "attrs": {"num_hidden": "2048"}, 
      "inputs": [[110, 0, 0], [47, 0, 0], [48, 0, 0]]
    }, 
    {
      "op": "elemwise_add", 
      "name": "_plus16", 
      "inputs": [[145, 0, 0], [146, 0, 0]]
    }, 
    {
      "op": "SliceChannel", 
      "name": "t2_l2_slice", 
      "attrs": {"num_outputs": "4"}, 
      "inputs": [[147, 0, 0]]
    }, 
    {
      "op": "Activation", 
      "name": "activation43", 
      "attrs": {"act_type": "sigmoid"}, 
      "inputs": [[148, 3, 0]]
    }, 
    {
      "op": "Activation", 
      "name": "activation42", 
      "attrs": {"act_type": "sigmoid"}, 
      "inputs": [[148, 2, 0]]
    }, 
    {
      "op": "elemwise_mul", 
      "name": "_mul24", 
      "inputs": [[150, 0, 0], [108, 0, 0]]
    }, 
    {
      "op": "Activation", 
      "name": "activation40", 
      "attrs": {"act_type": "sigmoid"}, 
      "inputs": [[148, 0, 0]]
    }, 
    {
      "op": "Activation", 
      "name": "activation41", 
      "attrs": {"act_type": "tanh"}, 
      "inputs": [[148, 1, 0]]
    }, 
    {
      "op": "elemwise_mul", 
      "name": "_mul25", 
      "inputs": [[152, 0, 0], [153, 0, 0]]
    }, 
    {
      "op": "elemwise_add", 
      "name": "_plus17", 
      "inputs": [[151, 0, 0], [154, 0, 0]]
    }, 
    {
      "op": "Activation", 
      "name": "activation44", 
      "attrs": {"act_type": "tanh"}, 
      "inputs": [[155, 0, 0]]
    }, 
    {
      "op": "elemwise_mul", 
      "name": "_mul26", 
      "inputs": [[149, 0, 0], [156, 0, 0]]
    }, 
    {
      "op": "Dropout", 
      "name": "dropout8", 
      "attrs": {"p": "0.2"}, 
      "inputs": [[157, 0, 0]]
    }, 
    {
      "op": "FullyConnected", 
      "name": "fullyconnected2", 
      "attrs": {"num_hidden": "3043"}, 
      "inputs": [[158, 0, 0], [63, 0, 0], [64, 0, 0]]
    }, 
    {
      "op": "null", 
      "name": "label/2", 
      "inputs": []
    }, 
    {
      "op": "SoftmaxOutput", 
      "name": "t2_sm", 
      "inputs": [[159, 0, 0], [160, 0, 0]]
    }, 
    {
      "op": "null", 
      "name": "data/3", 
      "inputs": []
    }, 
    {
      "op": "Embedding", 
      "name": "t3_embed", 
      "attrs": {
        "input_dim": "3043", 
        "output_dim": "256"
      }, 
      "inputs": [[162, 0, 0], [1, 0, 0]]
    }, 
    {
      "op": "FullyConnected", 
      "name": "t3_l0_i2h", 
      "attrs": {"num_hidden": "2048"}, 
      "inputs": [[163, 0, 0], [3, 0, 0], [4, 0, 0]]
    }, 
    {
      "op": "FullyConnected", 
      "name": "t3_l0_h2h", 
      "attrs": {"num_hidden": "2048"}, 
      "inputs": [[129, 0, 0], [7, 0, 0], [8, 0, 0]]
    }, 
    {
      "op": "elemwise_add", 
      "name": "_plus18", 
      "inputs": [[164, 0, 0], [165, 0, 0]]
    }, 
    {
      "op": "SliceChannel", 
      "name": "t3_l0_slice", 
      "attrs": {"num_outputs": "4"}, 
      "inputs": [[166, 0, 0]]
    }, 
    {
      "op": "Activation", 
      "name": "activation48", 
      "attrs": {"act_type": "sigmoid"}, 
      "inputs": [[167, 3, 0]]
    }, 
    {
      "op": "Activation", 
      "name": "activation47", 
      "attrs": {"act_type": "sigmoid"}, 
      "inputs": [[167, 2, 0]]
    }, 
    {
      "op": "elemwise_mul", 
      "name": "_mul27", 
      "inputs": [[169, 0, 0], [127, 0, 0]]
    }, 
    {
      "op": "Activation", 
      "name": "activation45", 
      "attrs": {"act_type": "sigmoid"}, 
      "inputs": [[167, 0, 0]]
    }, 
    {
      "op": "Activation", 
      "name": "activation46", 
      "attrs": {"act_type": "tanh"}, 
      "inputs": [[167, 1, 0]]
    }, 
    {
      "op": "elemwise_mul", 
      "name": "_mul28", 
      "inputs": [[171, 0, 0], [172, 0, 0]]
    }, 
    {
      "op": "elemwise_add", 
      "name": "_plus19", 
      "inputs": [[170, 0, 0], [173, 0, 0]]
    }, 
    {
      "op": "Activation", 
      "name": "activation49", 
      "attrs": {"act_type": "tanh"}, 
      "inputs": [[174, 0, 0]]
    }, 
    {
      "op": "elemwise_mul", 
      "name": "_mul29", 
      "inputs": [[168, 0, 0], [175, 0, 0]]
    }, 
    {
      "op": "Dropout", 
      "name": "dropout9", 
      "attrs": {"p": "0.2"}, 
      "inputs": [[176, 0, 0]]
    }, 
    {
      "op": "FullyConnected", 
      "name": "t3_l1_i2h", 
      "attrs": {"num_hidden": "2048"}, 
      "inputs": [[177, 0, 0], [23, 0, 0], [24, 0, 0]]
    }, 
    {
      "op": "FullyConnected", 
      "name": "t3_l1_h2h", 
      "attrs": {"num_hidden": "2048"}, 
      "inputs": [[143, 0, 0], [27, 0, 0], [28, 0, 0]]
    }, 
    {
      "op": "elemwise_add", 
      "name": "_plus20", 
      "inputs": [[178, 0, 0], [179, 0, 0]]
    }, 
    {
      "op": "SliceChannel", 
      "name": "t3_l1_slice", 
      "attrs": {"num_outputs": "4"}, 
      "inputs": [[180, 0, 0]]
    }, 
    {
      "op": "Activation", 
      "name": "activation53", 
      "attrs": {"act_type": "sigmoid"}, 
      "inputs": [[181, 3, 0]]
    }, 
    {
      "op": "Activation", 
      "name": "activation52", 
      "attrs": {"act_type": "sigmoid"}, 
      "inputs": [[181, 2, 0]]
    }, 
    {
      "op": "elemwise_mul", 
      "name": "_mul30", 
      "inputs": [[183, 0, 0], [141, 0, 0]]
    }, 
    {
      "op": "Activation", 
      "name": "activation50", 
      "attrs": {"act_type": "sigmoid"}, 
      "inputs": [[181, 0, 0]]
    }, 
    {
      "op": "Activation", 
      "name": "activation51", 
      "attrs": {"act_type": "tanh"}, 
      "inputs": [[181, 1, 0]]
    }, 
    {
      "op": "elemwise_mul", 
      "name": "_mul31", 
      "inputs": [[185, 0, 0], [186, 0, 0]]
    }, 
    {
      "op": "elemwise_add", 
      "name": "_plus21", 
      "inputs": [[184, 0, 0], [187, 0, 0]]
    }, 
    {
      "op": "Activation", 
      "name": "activation54", 
      "attrs": {"act_type": "tanh"}, 
      "inputs": [[188, 0, 0]]
    }, 
    {
      "op": "elemwise_mul", 
      "name": "_mul32", 
      "inputs": [[182, 0, 0], [189, 0, 0]]
    }, 
    {
      "op": "Dropout", 
      "name": "dropout10", 
      "attrs": {"p": "0.2"}, 
      "inputs": [[190, 0, 0]]
    }, 
    {
      "op": "FullyConnected", 
      "name": "t3_l2_i2h", 
      "attrs": {"num_hidden": "2048"}, 
      "inputs": [[191, 0, 0], [43, 0, 0], [44, 0, 0]]
    }, 
    {
      "op": "FullyConnected", 
      "name": "t3_l2_h2h", 
      "attrs": {"num_hidden": "2048"}, 
      "inputs": [[157, 0, 0], [47, 0, 0], [48, 0, 0]]
    }, 
    {
      "op": "elemwise_add", 
      "name": "_plus22", 
      "inputs": [[192, 0, 0], [193, 0, 0]]
    }, 
    {
      "op": "SliceChannel", 
      "name": "t3_l2_slice", 
      "attrs": {"num_outputs": "4"}, 
      "inputs": [[194, 0, 0]]
    }, 
    {
      "op": "Activation", 
      "name": "activation58", 
      "attrs": {"act_type": "sigmoid"}, 
      "inputs": [[195, 3, 0]]
    }, 
    {
      "op": "Activation", 
      "name": "activation57", 
      "attrs": {"act_type": "sigmoid"}, 
      "inputs": [[195, 2, 0]]
    }, 
    {
      "op": "elemwise_mul", 
      "name": "_mul33", 
      "inputs": [[197, 0, 0], [155, 0, 0]]
    }, 
    {
      "op": "Activation", 
      "name": "activation55", 
      "attrs": {"act_type": "sigmoid"}, 
      "inputs": [[195, 0, 0]]
    }, 
    {
      "op": "Activation", 
      "name": "activation56", 
      "attrs": {"act_type": "tanh"}, 
      "inputs": [[195, 1, 0]]
    }, 
    {
      "op": "elemwise_mul", 
      "name": "_mul34", 
      "inputs": [[199, 0, 0], [200, 0, 0]]
    }, 
    {
      "op": "elemwise_add", 
      "name": "_plus23", 
      "inputs": [[198, 0, 0], [201, 0, 0]]
    }, 
    {
      "op": "Activation", 
      "name": "activation59", 
      "attrs": {"act_type": "tanh"}, 
      "inputs": [[202, 0, 0]]
    }, 
    {
      "op": "elemwise_mul", 
      "name": "_mul35", 
      "inputs": [[196, 0, 0], [203, 0, 0]]
    }, 
    {
      "op": "Dropout", 
      "name": "dropout11", 
      "attrs": {"p": "0.2"}, 
      "inputs": [[204, 0, 0]]
    }, 
    {
      "op": "FullyConnected", 
      "name": "fullyconnected3", 
      "attrs": {"num_hidden": "3043"}, 
      "inputs": [[205, 0, 0], [63, 0, 0], [64, 0, 0]]
    }, 
    {
      "op": "null", 
      "name": "label/3", 
      "inputs": []
    }, 
    {
      "op": "SoftmaxOutput", 
      "name": "t3_sm", 
      "inputs": [[206, 0, 0], [207, 0, 0]]
    }, 
    {
      "op": "null", 
      "name": "data/4", 
      "inputs": []
    }, 
    {
      "op": "Embedding", 
      "name": "t4_embed", 
      "attrs": {
        "input_dim": "3043", 
        "output_dim": "256"
      }, 
      "inputs": [[209, 0, 0], [1, 0, 0]]
    }, 
    {
      "op": "FullyConnected", 
      "name": "t4_l0_i2h", 
      "attrs": {"num_hidden": "2048"}, 
      "inputs": [[210, 0, 0], [3, 0, 0], [4, 0, 0]]
    }, 
    {
      "op": "FullyConnected", 
      "name": "t4_l0_h2h", 
      "attrs": {"num_hidden": "2048"}, 
      "inputs": [[176, 0, 0], [7, 0, 0], [8, 0, 0]]
    }, 
    {
      "op": "elemwise_add", 
      "name": "_plus24", 
      "inputs": [[211, 0, 0], [212, 0, 0]]
    }, 
    {
      "op": "SliceChannel", 
      "name": "t4_l0_slice", 
      "attrs": {"num_outputs": "4"}, 
      "inputs": [[213, 0, 0]]
    }, 
    {
      "op": "Activation", 
      "name": "activation63", 
      "attrs": {"act_type": "sigmoid"}, 
      "inputs": [[214, 3, 0]]
    }, 
    {
      "op": "Activation", 
      "name": "activation62", 
      "attrs": {"act_type": "sigmoid"}, 
      "inputs": [[214, 2, 0]]
    }, 
    {
      "op": "elemwise_mul", 
      "name": "_mul36", 
      "inputs": [[216, 0, 0], [174, 0, 0]]
    }, 
    {
      "op": "Activation", 
      "name": "activation60", 
      "attrs": {"act_type": "sigmoid"}, 
      "inputs": [[214, 0, 0]]
    }, 
    {
      "op": "Activation", 
      "name": "activation61", 
      "attrs": {"act_type": "tanh"}, 
      "inputs": [[214, 1, 0]]
    }, 
    {
      "op": "elemwise_mul", 
      "name": "_mul37", 
      "inputs": [[218, 0, 0], [219, 0, 0]]
    }, 
    {
      "op": "elemwise_add", 
      "name": "_plus25", 
      "inputs": [[217, 0, 0], [220, 0, 0]]
    }, 
    {
      "op": "Activation", 
      "name": "activation64", 
      "attrs": {"act_type": "tanh"}, 
      "inputs": [[221, 0, 0]]
    }, 
    {
      "op": "elemwise_mul", 
      "name": "_mul38", 
      "inputs": [[215, 0, 0], [222, 0, 0]]
    }, 
    {
      "op": "Dropout", 
      "name": "dropout12", 
      "attrs": {"p": "0.2"}, 
      "inputs": [[223, 0, 0]]
    }, 
    {
      "op": "FullyConnected", 
      "name": "t4_l1_i2h", 
      "attrs": {"num_hidden": "2048"}, 
      "inputs": [[224, 0, 0], [23, 0, 0], [24, 0, 0]]
    }, 
    {
      "op": "FullyConnected", 
      "name": "t4_l1_h2h", 
      "attrs": {"num_hidden": "2048"}, 
      "inputs": [[190, 0, 0], [27, 0, 0], [28, 0, 0]]
    }, 
    {
      "op": "elemwise_add", 
      "name": "_plus26", 
      "inputs": [[225, 0, 0], [226, 0, 0]]
    }, 
    {
      "op": "SliceChannel", 
      "name": "t4_l1_slice", 
      "attrs": {"num_outputs": "4"}, 
      "inputs": [[227, 0, 0]]
    }, 
    {
      "op": "Activation", 
      "name": "activation68", 
      "attrs": {"act_type": "sigmoid"}, 
      "inputs": [[228, 3, 0]]
    }, 
    {
      "op": "Activation", 
      "name": "activation67", 
      "attrs": {"act_type": "sigmoid"}, 
      "inputs": [[228, 2, 0]]
    }, 
    {
      "op": "elemwise_mul", 
      "name": "_mul39", 
      "inputs": [[230, 0, 0], [188, 0, 0]]
    }, 
    {
      "op": "Activation", 
      "name": "activation65", 
      "attrs": {"act_type": "sigmoid"}, 
      "inputs": [[228, 0, 0]]
    }, 
    {
      "op": "Activation", 
      "name": "activation66", 
      "attrs": {"act_type": "tanh"}, 
      "inputs": [[228, 1, 0]]
    }, 
    {
      "op": "elemwise_mul", 
      "name": "_mul40", 
      "inputs": [[232, 0, 0], [233, 0, 0]]
    }, 
    {
      "op": "elemwise_add", 
      "name": "_plus27", 
      "inputs": [[231, 0, 0], [234, 0, 0]]
    }, 
    {
      "op": "Activation", 
      "name": "activation69", 
      "attrs": {"act_type": "tanh"}, 
      "inputs": [[235, 0, 0]]
    }, 
    {
      "op": "elemwise_mul", 
      "name": "_mul41", 
      "inputs": [[229, 0, 0], [236, 0, 0]]
    }, 
    {
      "op": "Dropout", 
      "name": "dropout13", 
      "attrs": {"p": "0.2"}, 
      "inputs": [[237, 0, 0]]
    }, 
    {
      "op": "FullyConnected", 
      "name": "t4_l2_i2h", 
      "attrs": {"num_hidden": "2048"}, 
      "inputs": [[238, 0, 0], [43, 0, 0], [44, 0, 0]]
    }, 
    {
      "op": "FullyConnected", 
      "name": "t4_l2_h2h", 
      "attrs": {"num_hidden": "2048"}, 
      "inputs": [[204, 0, 0], [47, 0, 0], [48, 0, 0]]
    }, 
    {
      "op": "elemwise_add", 
      "name": "_plus28", 
      "inputs": [[239, 0, 0], [240, 0, 0]]
    }, 
    {
      "op": "SliceChannel", 
      "name": "t4_l2_slice", 
      "attrs": {"num_outputs": "4"}, 
      "inputs": [[241, 0, 0]]
    }, 
    {
      "op": "Activation", 
      "name": "activation73", 
      "attrs": {"act_type": "sigmoid"}, 
      "inputs": [[242, 3, 0]]
    }, 
    {
      "op": "Activation", 
      "name": "activation72", 
      "attrs": {"act_type": "sigmoid"}, 
      "inputs": [[242, 2, 0]]
    }, 
    {
      "op": "elemwise_mul", 
      "name": "_mul42", 
      "inputs": [[244, 0, 0], [202, 0, 0]]
    }, 
    {
      "op": "Activation", 
      "name": "activation70", 
      "attrs": {"act_type": "sigmoid"}, 
      "inputs": [[242, 0, 0]]
    }, 
    {
      "op": "Activation", 
      "name": "activation71", 
      "attrs": {"act_type": "tanh"}, 
      "inputs": [[242, 1, 0]]
    }, 
    {
      "op": "elemwise_mul", 
      "name": "_mul43", 
      "inputs": [[246, 0, 0], [247, 0, 0]]
    }, 
    {
      "op": "elemwise_add", 
      "name": "_plus29", 
      "inputs": [[245, 0, 0], [248, 0, 0]]
    }, 
    {
      "op": "Activation", 
      "name": "activation74", 
      "attrs": {"act_type": "tanh"}, 
      "inputs": [[249, 0, 0]]
    }, 
    {
      "op": "elemwise_mul", 
      "name": "_mul44", 
      "inputs": [[243, 0, 0], [250, 0, 0]]
    }, 
    {
      "op": "Dropout", 
      "name": "dropout14", 
      "attrs": {"p": "0.2"}, 
      "inputs": [[251, 0, 0]]
    }, 
    {
      "op": "FullyConnected", 
      "name": "fullyconnected4", 
      "attrs": {"num_hidden": "3043"}, 
      "inputs": [[252, 0, 0], [63, 0, 0], [64, 0, 0]]
    }, 
    {
      "op": "null", 
      "name": "label/4", 
      "inputs": []
    }, 
    {
      "op": "SoftmaxOutput", 
      "name": "t4_sm", 
      "inputs": [[253, 0, 0], [254, 0, 0]]
    }, 
    {
      "op": "null", 
      "name": "data/5", 
      "inputs": []
    }, 
    {
      "op": "Embedding", 
      "name": "t5_embed", 
      "attrs": {
        "input_dim": "3043", 
        "output_dim": "256"
      }, 
      "inputs": [[256, 0, 0], [1, 0, 0]]
    }, 
    {
      "op": "FullyConnected", 
      "name": "t5_l0_i2h", 
      "attrs": {"num_hidden": "2048"}, 
      "inputs": [[257, 0, 0], [3, 0, 0], [4, 0, 0]]
    }, 
    {
      "op": "FullyConnected", 
      "name": "t5_l0_h2h", 
      "attrs": {"num_hidden": "2048"}, 
      "inputs": [[223, 0, 0], [7, 0, 0], [8, 0, 0]]
    }, 
    {
      "op": "elemwise_add", 
      "name": "_plus30", 
      "inputs": [[258, 0, 0], [259, 0, 0]]
    }, 
    {
      "op": "SliceChannel", 
      "name": "t5_l0_slice", 
      "attrs": {"num_outputs": "4"}, 
      "inputs": [[260, 0, 0]]
    }, 
    {
      "op": "Activation", 
      "name": "activation78", 
      "attrs": {"act_type": "sigmoid"}, 
      "inputs": [[261, 3, 0]]
    }, 
    {
      "op": "Activation", 
      "name": "activation77", 
      "attrs": {"act_type": "sigmoid"}, 
      "inputs": [[261, 2, 0]]
    }, 
    {
      "op": "elemwise_mul", 
      "name": "_mul45", 
      "inputs": [[263, 0, 0], [221, 0, 0]]
    }, 
    {
      "op": "Activation", 
      "name": "activation75", 
      "attrs": {"act_type": "sigmoid"}, 
      "inputs": [[261, 0, 0]]
    }, 
    {
      "op": "Activation", 
      "name": "activation76", 
      "attrs": {"act_type": "tanh"}, 
      "inputs": [[261, 1, 0]]
    }, 
    {
      "op": "elemwise_mul", 
      "name": "_mul46", 
      "inputs": [[265, 0, 0], [266, 0, 0]]
    }, 
    {
      "op": "elemwise_add", 
      "name": "_plus31", 
      "inputs": [[264, 0, 0], [267, 0, 0]]
    }, 
    {
      "op": "Activation", 
      "name": "activation79", 
      "attrs": {"act_type": "tanh"}, 
      "inputs": [[268, 0, 0]]
    }, 
    {
      "op": "elemwise_mul", 
      "name": "_mul47", 
      "inputs": [[262, 0, 0], [269, 0, 0]]
    }, 
    {
      "op": "Dropout", 
      "name": "dropout15", 
      "attrs": {"p": "0.2"}, 
      "inputs": [[270, 0, 0]]
    }, 
    {
      "op": "FullyConnected", 
      "name": "t5_l1_i2h", 
      "attrs": {"num_hidden": "2048"}, 
      "inputs": [[271, 0, 0], [23, 0, 0], [24, 0, 0]]
    }, 
    {
      "op": "FullyConnected", 
      "name": "t5_l1_h2h", 
      "attrs": {"num_hidden": "2048"}, 
      "inputs": [[237, 0, 0], [27, 0, 0], [28, 0, 0]]
    }, 
    {
      "op": "elemwise_add", 
      "name": "_plus32", 
      "inputs": [[272, 0, 0], [273, 0, 0]]
    }, 
    {
      "op": "SliceChannel", 
      "name": "t5_l1_slice", 
      "attrs": {"num_outputs": "4"}, 
      "inputs": [[274, 0, 0]]
    }, 
    {
      "op": "Activation", 
      "name": "activation83", 
      "attrs": {"act_type": "sigmoid"}, 
      "inputs": [[275, 3, 0]]
    }, 
    {
      "op": "Activation", 
      "name": "activation82", 
      "attrs": {"act_type": "sigmoid"}, 
      "inputs": [[275, 2, 0]]
    }, 
    {
      "op": "elemwise_mul", 
      "name": "_mul48", 
      "inputs": [[277, 0, 0], [235, 0, 0]]
    }, 
    {
      "op": "Activation", 
      "name": "activation80", 
      "attrs": {"act_type": "sigmoid"}, 
      "inputs": [[275, 0, 0]]
    }, 
    {
      "op": "Activation", 
      "name": "activation81", 
      "attrs": {"act_type": "tanh"}, 
      "inputs": [[275, 1, 0]]
    }, 
    {
      "op": "elemwise_mul", 
      "name": "_mul49", 
      "inputs": [[279, 0, 0], [280, 0, 0]]
    }, 
    {
      "op": "elemwise_add", 
      "name": "_plus33", 
      "inputs": [[278, 0, 0], [281, 0, 0]]
    }, 
    {
      "op": "Activation", 
      "name": "activation84", 
      "attrs": {"act_type": "tanh"}, 
      "inputs": [[282, 0, 0]]
    }, 
    {
      "op": "elemwise_mul", 
      "name": "_mul50", 
      "inputs": [[276, 0, 0], [283, 0, 0]]
    }, 
    {
      "op": "Dropout", 
      "name": "dropout16", 
      "attrs": {"p": "0.2"}, 
      "inputs": [[284, 0, 0]]
    }, 
    {
      "op": "FullyConnected", 
      "name": "t5_l2_i2h", 
      "attrs": {"num_hidden": "2048"}, 
      "inputs": [[285, 0, 0], [43, 0, 0], [44, 0, 0]]
    }, 
    {
      "op": "FullyConnected", 
      "name": "t5_l2_h2h", 
      "attrs": {"num_hidden": "2048"}, 
      "inputs": [[251, 0, 0], [47, 0, 0], [48, 0, 0]]
    }, 
    {
      "op": "elemwise_add", 
      "name": "_plus34", 
      "inputs": [[286, 0, 0], [287, 0, 0]]
    }, 
    {
      "op": "SliceChannel", 
      "name": "t5_l2_slice", 
      "attrs": {"num_outputs": "4"}, 
      "inputs": [[288, 0, 0]]
    }, 
    {
      "op": "Activation", 
      "name": "activation88", 
      "attrs": {"act_type": "sigmoid"}, 
      "inputs": [[289, 3, 0]]
    }, 
    {
      "op": "Activation", 
      "name": "activation87", 
      "attrs": {"act_type": "sigmoid"}, 
      "inputs": [[289, 2, 0]]
    }, 
    {
      "op": "elemwise_mul", 
      "name": "_mul51", 
      "inputs": [[291, 0, 0], [249, 0, 0]]
    }, 
    {
      "op": "Activation", 
      "name": "activation85", 
      "attrs": {"act_type": "sigmoid"}, 
      "inputs": [[289, 0, 0]]
    }, 
    {
      "op": "Activation", 
      "name": "activation86", 
      "attrs": {"act_type": "tanh"}, 
      "inputs": [[289, 1, 0]]
    }, 
    {
      "op": "elemwise_mul", 
      "name": "_mul52", 
      "inputs": [[293, 0, 0], [294, 0, 0]]
    }, 
    {
      "op": "elemwise_add", 
      "name": "_plus35", 
      "inputs": [[292, 0, 0], [295, 0, 0]]
    }, 
    {
      "op": "Activation", 
      "name": "activation89", 
      "attrs": {"act_type": "tanh"}, 
      "inputs": [[296, 0, 0]]
    }, 
    {
      "op": "elemwise_mul", 
      "name": "_mul53", 
      "inputs": [[290, 0, 0], [297, 0, 0]]
    }, 
    {
      "op": "Dropout", 
      "name": "dropout17", 
      "attrs": {"p": "0.2"}, 
      "inputs": [[298, 0, 0]]
    }, 
    {
      "op": "FullyConnected", 
      "name": "fullyconnected5", 
      "attrs": {"num_hidden": "3043"}, 
      "inputs": [[299, 0, 0], [63, 0, 0], [64, 0, 0]]
    }, 
    {
      "op": "null", 
      "name": "label/5", 
      "inputs": []
    }, 
    {
      "op": "SoftmaxOutput", 
      "name": "t5_sm", 
      "inputs": [[300, 0, 0], [301, 0, 0]]
    }, 
    {
      "op": "null", 
      "name": "data/6", 
      "inputs": []
    }, 
    {
      "op": "Embedding", 
      "name": "t6_embed", 
      "attrs": {
        "input_dim": "3043", 
        "output_dim": "256"
      }, 
      "inputs": [[303, 0, 0], [1, 0, 0]]
    }, 
    {
      "op": "FullyConnected", 
      "name": "t6_l0_i2h", 
      "attrs": {"num_hidden": "2048"}, 
      "inputs": [[304, 0, 0], [3, 0, 0], [4, 0, 0]]
    }, 
    {
      "op": "FullyConnected", 
      "name": "t6_l0_h2h", 
      "attrs": {"num_hidden": "2048"}, 
      "inputs": [[270, 0, 0], [7, 0, 0], [8, 0, 0]]
    }, 
    {
      "op": "elemwise_add", 
      "name": "_plus36", 
      "inputs": [[305, 0, 0], [306, 0, 0]]
    }, 
    {
      "op": "SliceChannel", 
      "name": "t6_l0_slice", 
      "attrs": {"num_outputs": "4"}, 
      "inputs": [[307, 0, 0]]
    }, 
    {
      "op": "Activation", 
      "name": "activation93", 
      "attrs": {"act_type": "sigmoid"}, 
      "inputs": [[308, 3, 0]]
    }, 
    {
      "op": "Activation", 
      "name": "activation92", 
      "attrs": {"act_type": "sigmoid"}, 
      "inputs": [[308, 2, 0]]
    }, 
    {
      "op": "elemwise_mul", 
      "name": "_mul54", 
      "inputs": [[310, 0, 0], [268, 0, 0]]
    }, 
    {
      "op": "Activation", 
      "name": "activation90", 
      "attrs": {"act_type": "sigmoid"}, 
      "inputs": [[308, 0, 0]]
    }, 
    {
      "op": "Activation", 
      "name": "activation91", 
      "attrs": {"act_type": "tanh"}, 
      "inputs": [[308, 1, 0]]
    }, 
    {
      "op": "elemwise_mul", 
      "name": "_mul55", 
      "inputs": [[312, 0, 0], [313, 0, 0]]
    }, 
    {
      "op": "elemwise_add", 
      "name": "_plus37", 
      "inputs": [[311, 0, 0], [314, 0, 0]]
    }, 
    {
      "op": "Activation", 
      "name": "activation94", 
      "attrs": {"act_type": "tanh"}, 
      "inputs": [[315, 0, 0]]
    }, 
    {
      "op": "elemwise_mul", 
      "name": "_mul56", 
      "inputs": [[309, 0, 0], [316, 0, 0]]
    }, 
    {
      "op": "Dropout", 
      "name": "dropout18", 
      "attrs": {"p": "0.2"}, 
      "inputs": [[317, 0, 0]]
    }, 
    {
      "op": "FullyConnected", 
      "name": "t6_l1_i2h", 
      "attrs": {"num_hidden": "2048"}, 
      "inputs": [[318, 0, 0], [23, 0, 0], [24, 0, 0]]
    }, 
    {
      "op": "FullyConnected", 
      "name": "t6_l1_h2h", 
      "attrs": {"num_hidden": "2048"}, 
      "inputs": [[284, 0, 0], [27, 0, 0], [28, 0, 0]]
    }, 
    {
      "op": "elemwise_add", 
      "name": "_plus38", 
      "inputs": [[319, 0, 0], [320, 0, 0]]
    }, 
    {
      "op": "SliceChannel", 
      "name": "t6_l1_slice", 
      "attrs": {"num_outputs": "4"}, 
      "inputs": [[321, 0, 0]]
    }, 
    {
      "op": "Activation", 
      "name": "activation98", 
      "attrs": {"act_type": "sigmoid"}, 
      "inputs": [[322, 3, 0]]
    }, 
    {
      "op": "Activation", 
      "name": "activation97", 
      "attrs": {"act_type": "sigmoid"}, 
      "inputs": [[322, 2, 0]]
    }, 
    {
      "op": "elemwise_mul", 
      "name": "_mul57", 
      "inputs": [[324, 0, 0], [282, 0, 0]]
    }, 
    {
      "op": "Activation", 
      "name": "activation95", 
      "attrs": {"act_type": "sigmoid"}, 
      "inputs": [[322, 0, 0]]
    }, 
    {
      "op": "Activation", 
      "name": "activation96", 
      "attrs": {"act_type": "tanh"}, 
      "inputs": [[322, 1, 0]]
    }, 
    {
      "op": "elemwise_mul", 
      "name": "_mul58", 
      "inputs": [[326, 0, 0], [327, 0, 0]]
    }, 
    {
      "op": "elemwise_add", 
      "name": "_plus39", 
      "inputs": [[325, 0, 0], [328, 0, 0]]
    }, 
    {
      "op": "Activation", 
      "name": "activation99", 
      "attrs": {"act_type": "tanh"}, 
      "inputs": [[329, 0, 0]]
    }, 
    {
      "op": "elemwise_mul", 
      "name": "_mul59", 
      "inputs": [[323, 0, 0], [330, 0, 0]]
    }, 
    {
      "op": "Dropout", 
      "name": "dropout19", 
      "attrs": {"p": "0.2"}, 
      "inputs": [[331, 0, 0]]
    }, 
    {
      "op": "FullyConnected", 
      "name": "t6_l2_i2h", 
      "attrs": {"num_hidden": "2048"}, 
      "inputs": [[332, 0, 0], [43, 0, 0], [44, 0, 0]]
    }, 
    {
      "op": "FullyConnected", 
      "name": "t6_l2_h2h", 
      "attrs": {"num_hidden": "2048"}, 
      "inputs": [[298, 0, 0], [47, 0, 0], [48, 0, 0]]
    }, 
    {
      "op": "elemwise_add", 
      "name": "_plus40", 
      "inputs": [[333, 0, 0], [334, 0, 0]]
    }, 
    {
      "op": "SliceChannel", 
      "name": "t6_l2_slice", 
      "attrs": {"num_outputs": "4"}, 
      "inputs": [[335, 0, 0]]
    }, 
    {
      "op": "Activation", 
      "name": "activation103", 
      "attrs": {"act_type": "sigmoid"}, 
      "inputs": [[336, 3, 0]]
    }, 
    {
      "op": "Activation", 
      "name": "activation102", 
      "attrs": {"act_type": "sigmoid"}, 
      "inputs": [[336, 2, 0]]
    }, 
    {
      "op": "elemwise_mul", 
      "name": "_mul60", 
      "inputs": [[338, 0, 0], [296, 0, 0]]
    }, 
    {
      "op": "Activation", 
      "name": "activation100", 
      "attrs": {"act_type": "sigmoid"}, 
      "inputs": [[336, 0, 0]]
    }, 
    {
      "op": "Activation", 
      "name": "activation101", 
      "attrs": {"act_type": "tanh"}, 
      "inputs": [[336, 1, 0]]
    }, 
    {
      "op": "elemwise_mul", 
      "name": "_mul61", 
      "inputs": [[340, 0, 0], [341, 0, 0]]
    }, 
    {
      "op": "elemwise_add", 
      "name": "_plus41", 
      "inputs": [[339, 0, 0], [342, 0, 0]]
    }, 
    {
      "op": "Activation", 
      "name": "activation104", 
      "attrs": {"act_type": "tanh"}, 
      "inputs": [[343, 0, 0]]
    }, 
    {
      "op": "elemwise_mul", 
      "name": "_mul62", 
      "inputs": [[337, 0, 0], [344, 0, 0]]
    }, 
    {
      "op": "Dropout", 
      "name": "dropout20", 
      "attrs": {"p": "0.2"}, 
      "inputs": [[345, 0, 0]]
    }, 
    {
      "op": "FullyConnected", 
      "name": "fullyconnected6", 
      "attrs": {"num_hidden": "3043"}, 
      "inputs": [[346, 0, 0], [63, 0, 0], [64, 0, 0]]
    }, 
    {
      "op": "null", 
      "name": "label/6", 
      "inputs": []
    }, 
    {
      "op": "SoftmaxOutput", 
      "name": "t6_sm", 
      "inputs": [[347, 0, 0], [348, 0, 0]]
    }, 
    {
      "op": "null", 
      "name": "data/7", 
      "inputs": []
    }, 
    {
      "op": "Embedding", 
      "name": "t7_embed", 
      "attrs": {
        "input_dim": "3043", 
        "output_dim": "256"
      }, 
      "inputs": [[350, 0, 0], [1, 0, 0]]
    }, 
    {
      "op": "FullyConnected", 
      "name": "t7_l0_i2h", 
      "attrs": {"num_hidden": "2048"}, 
      "inputs": [[351, 0, 0], [3, 0, 0], [4, 0, 0]]
    }, 
    {
      "op": "FullyConnected", 
      "name": "t7_l0_h2h", 
      "attrs": {"num_hidden": "2048"}, 
      "inputs": [[317, 0, 0], [7, 0, 0], [8, 0, 0]]
    }, 
    {
      "op": "elemwise_add", 
      "name": "_plus42", 
      "inputs": [[352, 0, 0], [353, 0, 0]]
    }, 
    {
      "op": "SliceChannel", 
      "name": "t7_l0_slice", 
      "attrs": {"num_outputs": "4"}, 
      "inputs": [[354, 0, 0]]
    }, 
    {
      "op": "Activation", 
      "name": "activation108", 
      "attrs": {"act_type": "sigmoid"}, 
      "inputs": [[355, 3, 0]]
    }, 
    {
      "op": "Activation", 
      "name": "activation107", 
      "attrs": {"act_type": "sigmoid"}, 
      "inputs": [[355, 2, 0]]
    }, 
    {
      "op": "elemwise_mul", 
      "name": "_mul63", 
      "inputs": [[357, 0, 0], [315, 0, 0]]
    }, 
    {
      "op": "Activation", 
      "name": "activation105", 
      "attrs": {"act_type": "sigmoid"}, 
      "inputs": [[355, 0, 0]]
    }, 
    {
      "op": "Activation", 
      "name": "activation106", 
      "attrs": {"act_type": "tanh"}, 
      "inputs": [[355, 1, 0]]
    }, 
    {
      "op": "elemwise_mul", 
      "name": "_mul64", 
      "inputs": [[359, 0, 0], [360, 0, 0]]
    }, 
    {
      "op": "elemwise_add", 
      "name": "_plus43", 
      "inputs": [[358, 0, 0], [361, 0, 0]]
    }, 
    {
      "op": "Activation", 
      "name": "activation109", 
      "attrs": {"act_type": "tanh"}, 
      "inputs": [[362, 0, 0]]
    }, 
    {
      "op": "elemwise_mul", 
      "name": "_mul65", 
      "inputs": [[356, 0, 0], [363, 0, 0]]
    }, 
    {
      "op": "Dropout", 
      "name": "dropout21", 
      "attrs": {"p": "0.2"}, 
      "inputs": [[364, 0, 0]]
    }, 
    {
      "op": "FullyConnected", 
      "name": "t7_l1_i2h", 
      "attrs": {"num_hidden": "2048"}, 
      "inputs": [[365, 0, 0], [23, 0, 0], [24, 0, 0]]
    }, 
    {
      "op": "FullyConnected", 
      "name": "t7_l1_h2h", 
      "attrs": {"num_hidden": "2048"}, 
      "inputs": [[331, 0, 0], [27, 0, 0], [28, 0, 0]]
    }, 
    {
      "op": "elemwise_add", 
      "name": "_plus44", 
      "inputs": [[366, 0, 0], [367, 0, 0]]
    }, 
    {
      "op": "SliceChannel", 
      "name": "t7_l1_slice", 
      "attrs": {"num_outputs": "4"}, 
      "inputs": [[368, 0, 0]]
    }, 
    {
      "op": "Activation", 
      "name": "activation113", 
      "attrs": {"act_type": "sigmoid"}, 
      "inputs": [[369, 3, 0]]
    }, 
    {
      "op": "Activation", 
      "name": "activation112", 
      "attrs": {"act_type": "sigmoid"}, 
      "inputs": [[369, 2, 0]]
    }, 
    {
      "op": "elemwise_mul", 
      "name": "_mul66", 
      "inputs": [[371, 0, 0], [329, 0, 0]]
    }, 
    {
      "op": "Activation", 
      "name": "activation110", 
      "attrs": {"act_type": "sigmoid"}, 
      "inputs": [[369, 0, 0]]
    }, 
    {
      "op": "Activation", 
      "name": "activation111", 
      "attrs": {"act_type": "tanh"}, 
      "inputs": [[369, 1, 0]]
    }, 
    {
      "op": "elemwise_mul", 
      "name": "_mul67", 
      "inputs": [[373, 0, 0], [374, 0, 0]]
    }, 
    {
      "op": "elemwise_add", 
      "name": "_plus45", 
      "inputs": [[372, 0, 0], [375, 0, 0]]
    }, 
    {
      "op": "Activation", 
      "name": "activation114", 
      "attrs": {"act_type": "tanh"}, 
      "inputs": [[376, 0, 0]]
    }, 
    {
      "op": "elemwise_mul", 
      "name": "_mul68", 
      "inputs": [[370, 0, 0], [377, 0, 0]]
    }, 
    {
      "op": "Dropout", 
      "name": "dropout22", 
      "attrs": {"p": "0.2"}, 
      "inputs": [[378, 0, 0]]
    }, 
    {
      "op": "FullyConnected", 
      "name": "t7_l2_i2h", 
      "attrs": {"num_hidden": "2048"}, 
      "inputs": [[379, 0, 0], [43, 0, 0], [44, 0, 0]]
    }, 
    {
      "op": "FullyConnected", 
      "name": "t7_l2_h2h", 
      "attrs": {"num_hidden": "2048"}, 
      "inputs": [[345, 0, 0], [47, 0, 0], [48, 0, 0]]
    }, 
    {
      "op": "elemwise_add", 
      "name": "_plus46", 
      "inputs": [[380, 0, 0], [381, 0, 0]]
    }, 
    {
      "op": "SliceChannel", 
      "name": "t7_l2_slice", 
      "attrs": {"num_outputs": "4"}, 
      "inputs": [[382, 0, 0]]
    }, 
    {
      "op": "Activation", 
      "name": "activation118", 
      "attrs": {"act_type": "sigmoid"}, 
      "inputs": [[383, 3, 0]]
    }, 
    {
      "op": "Activation", 
      "name": "activation117", 
      "attrs": {"act_type": "sigmoid"}, 
      "inputs": [[383, 2, 0]]
    }, 
    {
      "op": "elemwise_mul", 
      "name": "_mul69", 
      "inputs": [[385, 0, 0], [343, 0, 0]]
    }, 
    {
      "op": "Activation", 
      "name": "activation115", 
      "attrs": {"act_type": "sigmoid"}, 
      "inputs": [[383, 0, 0]]
    }, 
    {
      "op": "Activation", 
      "name": "activation116", 
      "attrs": {"act_type": "tanh"}, 
      "inputs": [[383, 1, 0]]
    }, 
    {
      "op": "elemwise_mul", 
      "name": "_mul70", 
      "inputs": [[387, 0, 0], [388, 0, 0]]
    }, 
    {
      "op": "elemwise_add", 
      "name": "_plus47", 
      "inputs": [[386, 0, 0], [389, 0, 0]]
    }, 
    {
      "op": "Activation", 
      "name": "activation119", 
      "attrs": {"act_type": "tanh"}, 
      "inputs": [[390, 0, 0]]
    }, 
    {
      "op": "elemwise_mul", 
      "name": "_mul71", 
      "inputs": [[384, 0, 0], [391, 0, 0]]
    }, 
    {
      "op": "Dropout", 
      "name": "dropout23", 
      "attrs": {"p": "0.2"}, 
      "inputs": [[392, 0, 0]]
    }, 
    {
      "op": "FullyConnected", 
      "name": "fullyconnected7", 
      "attrs": {"num_hidden": "3043"}, 
      "inputs": [[393, 0, 0], [63, 0, 0], [64, 0, 0]]
    }, 
    {
      "op": "null", 
      "name": "label/7", 
      "inputs": []
    }, 
    {
      "op": "SoftmaxOutput", 
      "name": "t7_sm", 
      "inputs": [[394, 0, 0], [395, 0, 0]]
    }, 
    {
      "op": "null", 
      "name": "data/8", 
      "inputs": []
    }, 
    {
      "op": "Embedding", 
      "name": "t8_embed", 
      "attrs": {
        "input_dim": "3043", 
        "output_dim": "256"
      }, 
      "inputs": [[397, 0, 0], [1, 0, 0]]
    }, 
    {
      "op": "FullyConnected", 
      "name": "t8_l0_i2h", 
      "attrs": {"num_hidden": "2048"}, 
      "inputs": [[398, 0, 0], [3, 0, 0], [4, 0, 0]]
    }, 
    {
      "op": "FullyConnected", 
      "name": "t8_l0_h2h", 
      "attrs": {"num_hidden": "2048"}, 
      "inputs": [[364, 0, 0], [7, 0, 0], [8, 0, 0]]
    }, 
    {
      "op": "elemwise_add", 
      "name": "_plus48", 
      "inputs": [[399, 0, 0], [400, 0, 0]]
    }, 
    {
      "op": "SliceChannel", 
      "name": "t8_l0_slice", 
      "attrs": {"num_outputs": "4"}, 
      "inputs": [[401, 0, 0]]
    }, 
    {
      "op": "Activation", 
      "name": "activation123", 
      "attrs": {"act_type": "sigmoid"}, 
      "inputs": [[402, 3, 0]]
    }, 
    {
      "op": "Activation", 
      "name": "activation122", 
      "attrs": {"act_type": "sigmoid"}, 
      "inputs": [[402, 2, 0]]
    }, 
    {
      "op": "elemwise_mul", 
      "name": "_mul72", 
      "inputs": [[404, 0, 0], [362, 0, 0]]
    }, 
    {
      "op": "Activation", 
      "name": "activation120", 
      "attrs": {"act_type": "sigmoid"}, 
      "inputs": [[402, 0, 0]]
    }, 
    {
      "op": "Activation", 
      "name": "activation121", 
      "attrs": {"act_type": "tanh"}, 
      "inputs": [[402, 1, 0]]
    }, 
    {
      "op": "elemwise_mul", 
      "name": "_mul73", 
      "inputs": [[406, 0, 0], [407, 0, 0]]
    }, 
    {
      "op": "elemwise_add", 
      "name": "_plus49", 
      "inputs": [[405, 0, 0], [408, 0, 0]]
    }, 
    {
      "op": "Activation", 
      "name": "activation124", 
      "attrs": {"act_type": "tanh"}, 
      "inputs": [[409, 0, 0]]
    }, 
    {
      "op": "elemwise_mul", 
      "name": "_mul74", 
      "inputs": [[403, 0, 0], [410, 0, 0]]
    }, 
    {
      "op": "Dropout", 
      "name": "dropout24", 
      "attrs": {"p": "0.2"}, 
      "inputs": [[411, 0, 0]]
    }, 
    {
      "op": "FullyConnected", 
      "name": "t8_l1_i2h", 
      "attrs": {"num_hidden": "2048"}, 
      "inputs": [[412, 0, 0], [23, 0, 0], [24, 0, 0]]
    }, 
    {
      "op": "FullyConnected", 
      "name": "t8_l1_h2h", 
      "attrs": {"num_hidden": "2048"}, 
      "inputs": [[378, 0, 0], [27, 0, 0], [28, 0, 0]]
    }, 
    {
      "op": "elemwise_add", 
      "name": "_plus50", 
      "inputs": [[413, 0, 0], [414, 0, 0]]
    }, 
    {
      "op": "SliceChannel", 
      "name": "t8_l1_slice", 
      "attrs": {"num_outputs": "4"}, 
      "inputs": [[415, 0, 0]]
    }, 
    {
      "op": "Activation", 
      "name": "activation128", 
      "attrs": {"act_type": "sigmoid"}, 
      "inputs": [[416, 3, 0]]
    }, 
    {
      "op": "Activation", 
      "name": "activation127", 
      "attrs": {"act_type": "sigmoid"}, 
      "inputs": [[416, 2, 0]]
    }, 
    {
      "op": "elemwise_mul", 
      "name": "_mul75", 
      "inputs": [[418, 0, 0], [376, 0, 0]]
    }, 
    {
      "op": "Activation", 
      "name": "activation125", 
      "attrs": {"act_type": "sigmoid"}, 
      "inputs": [[416, 0, 0]]
    }, 
    {
      "op": "Activation", 
      "name": "activation126", 
      "attrs": {"act_type": "tanh"}, 
      "inputs": [[416, 1, 0]]
    }, 
    {
      "op": "elemwise_mul", 
      "name": "_mul76", 
      "inputs": [[420, 0, 0], [421, 0, 0]]
    }, 
    {
      "op": "elemwise_add", 
      "name": "_plus51", 
      "inputs": [[419, 0, 0], [422, 0, 0]]
    }, 
    {
      "op": "Activation", 
      "name": "activation129", 
      "attrs": {"act_type": "tanh"}, 
      "inputs": [[423, 0, 0]]
    }, 
    {
      "op": "elemwise_mul", 
      "name": "_mul77", 
      "inputs": [[417, 0, 0], [424, 0, 0]]
    }, 
    {
      "op": "Dropout", 
      "name": "dropout25", 
      "attrs": {"p": "0.2"}, 
      "inputs": [[425, 0, 0]]
    }, 
    {
      "op": "FullyConnected", 
      "name": "t8_l2_i2h", 
      "attrs": {"num_hidden": "2048"}, 
      "inputs": [[426, 0, 0], [43, 0, 0], [44, 0, 0]]
    }, 
    {
      "op": "FullyConnected", 
      "name": "t8_l2_h2h", 
      "attrs": {"num_hidden": "2048"}, 
      "inputs": [[392, 0, 0], [47, 0, 0], [48, 0, 0]]
    }, 
    {
      "op": "elemwise_add", 
      "name": "_plus52", 
      "inputs": [[427, 0, 0], [428, 0, 0]]
    }, 
    {
      "op": "SliceChannel", 
      "name": "t8_l2_slice", 
      "attrs": {"num_outputs": "4"}, 
      "inputs": [[429, 0, 0]]
    }, 
    {
      "op": "Activation", 
      "name": "activation133", 
      "attrs": {"act_type": "sigmoid"}, 
      "inputs": [[430, 3, 0]]
    }, 
    {
      "op": "Activation", 
      "name": "activation132", 
      "attrs": {"act_type": "sigmoid"}, 
      "inputs": [[430, 2, 0]]
    }, 
    {
      "op": "elemwise_mul", 
      "name": "_mul78", 
      "inputs": [[432, 0, 0], [390, 0, 0]]
    }, 
    {
      "op": "Activation", 
      "name": "activation130", 
      "attrs": {"act_type": "sigmoid"}, 
      "inputs": [[430, 0, 0]]
    }, 
    {
      "op": "Activation", 
      "name": "activation131", 
      "attrs": {"act_type": "tanh"}, 
      "inputs": [[430, 1, 0]]
    }, 
    {
      "op": "elemwise_mul", 
      "name": "_mul79", 
      "inputs": [[434, 0, 0], [435, 0, 0]]
    }, 
    {
      "op": "elemwise_add", 
      "name": "_plus53", 
      "inputs": [[433, 0, 0], [436, 0, 0]]
    }, 
    {
      "op": "Activation", 
      "name": "activation134", 
      "attrs": {"act_type": "tanh"}, 
      "inputs": [[437, 0, 0]]
    }, 
    {
      "op": "elemwise_mul", 
      "name": "_mul80", 
      "inputs": [[431, 0, 0], [438, 0, 0]]
    }, 
    {
      "op": "Dropout", 
      "name": "dropout26", 
      "attrs": {"p": "0.2"}, 
      "inputs": [[439, 0, 0]]
    }, 
    {
      "op": "FullyConnected", 
      "name": "fullyconnected8", 
      "attrs": {"num_hidden": "3043"}, 
      "inputs": [[440, 0, 0], [63, 0, 0], [64, 0, 0]]
    }, 
    {
      "op": "null", 
      "name": "label/8", 
      "inputs": []
    }, 
    {
      "op": "SoftmaxOutput", 
      "name": "t8_sm", 
      "inputs": [[441, 0, 0], [442, 0, 0]]
    }, 
    {
      "op": "null", 
      "name": "data/9", 
      "inputs": []
    }, 
    {
      "op": "Embedding", 
      "name": "t9_embed", 
      "attrs": {
        "input_dim": "3043", 
        "output_dim": "256"
      }, 
      "inputs": [[444, 0, 0], [1, 0, 0]]
    }, 
    {
      "op": "FullyConnected", 
      "name": "t9_l0_i2h", 
      "attrs": {"num_hidden": "2048"}, 
      "inputs": [[445, 0, 0], [3, 0, 0], [4, 0, 0]]
    }, 
    {
      "op": "FullyConnected", 
      "name": "t9_l0_h2h", 
      "attrs": {"num_hidden": "2048"}, 
      "inputs": [[411, 0, 0], [7, 0, 0], [8, 0, 0]]
    }, 
    {
      "op": "elemwise_add", 
      "name": "_plus54", 
      "inputs": [[446, 0, 0], [447, 0, 0]]
    }, 
    {
      "op": "SliceChannel", 
      "name": "t9_l0_slice", 
      "attrs": {"num_outputs": "4"}, 
      "inputs": [[448, 0, 0]]
    }, 
    {
      "op": "Activation", 
      "name": "activation138", 
      "attrs": {"act_type": "sigmoid"}, 
      "inputs": [[449, 3, 0]]
    }, 
    {
      "op": "Activation", 
      "name": "activation137", 
      "attrs": {"act_type": "sigmoid"}, 
      "inputs": [[449, 2, 0]]
    }, 
    {
      "op": "elemwise_mul", 
      "name": "_mul81", 
      "inputs": [[451, 0, 0], [409, 0, 0]]
    }, 
    {
      "op": "Activation", 
      "name": "activation135", 
      "attrs": {"act_type": "sigmoid"}, 
      "inputs": [[449, 0, 0]]
    }, 
    {
      "op": "Activation", 
      "name": "activation136", 
      "attrs": {"act_type": "tanh"}, 
      "inputs": [[449, 1, 0]]
    }, 
    {
      "op": "elemwise_mul", 
      "name": "_mul82", 
      "inputs": [[453, 0, 0], [454, 0, 0]]
    }, 
    {
      "op": "elemwise_add", 
      "name": "_plus55", 
      "inputs": [[452, 0, 0], [455, 0, 0]]
    }, 
    {
      "op": "Activation", 
      "name": "activation139", 
      "attrs": {"act_type": "tanh"}, 
      "inputs": [[456, 0, 0]]
    }, 
    {
      "op": "elemwise_mul", 
      "name": "_mul83", 
      "inputs": [[450, 0, 0], [457, 0, 0]]
    }, 
    {
      "op": "Dropout", 
      "name": "dropout27", 
      "attrs": {"p": "0.2"}, 
      "inputs": [[458, 0, 0]]
    }, 
    {
      "op": "FullyConnected", 
      "name": "t9_l1_i2h", 
      "attrs": {"num_hidden": "2048"}, 
      "inputs": [[459, 0, 0], [23, 0, 0], [24, 0, 0]]
    }, 
    {
      "op": "FullyConnected", 
      "name": "t9_l1_h2h", 
      "attrs": {"num_hidden": "2048"}, 
      "inputs": [[425, 0, 0], [27, 0, 0], [28, 0, 0]]
    }, 
    {
      "op": "elemwise_add", 
      "name": "_plus56", 
      "inputs": [[460, 0, 0], [461, 0, 0]]
    }, 
    {
      "op": "SliceChannel", 
      "name": "t9_l1_slice", 
      "attrs": {"num_outputs": "4"}, 
      "inputs": [[462, 0, 0]]
    }, 
    {
      "op": "Activation", 
      "name": "activation143", 
      "attrs": {"act_type": "sigmoid"}, 
      "inputs": [[463, 3, 0]]
    }, 
    {
      "op": "Activation", 
      "name": "activation142", 
      "attrs": {"act_type": "sigmoid"}, 
      "inputs": [[463, 2, 0]]
    }, 
    {
      "op": "elemwise_mul", 
      "name": "_mul84", 
      "inputs": [[465, 0, 0], [423, 0, 0]]
    }, 
    {
      "op": "Activation", 
      "name": "activation140", 
      "attrs": {"act_type": "sigmoid"}, 
      "inputs": [[463, 0, 0]]
    }, 
    {
      "op": "Activation", 
      "name": "activation141", 
      "attrs": {"act_type": "tanh"}, 
      "inputs": [[463, 1, 0]]
    }, 
    {
      "op": "elemwise_mul", 
      "name": "_mul85", 
      "inputs": [[467, 0, 0], [468, 0, 0]]
    }, 
    {
      "op": "elemwise_add", 
      "name": "_plus57", 
      "inputs": [[466, 0, 0], [469, 0, 0]]
    }, 
    {
      "op": "Activation", 
      "name": "activation144", 
      "attrs": {"act_type": "tanh"}, 
      "inputs": [[470, 0, 0]]
    }, 
    {
      "op": "elemwise_mul", 
      "name": "_mul86", 
      "inputs": [[464, 0, 0], [471, 0, 0]]
    }, 
    {
      "op": "Dropout", 
      "name": "dropout28", 
      "attrs": {"p": "0.2"}, 
      "inputs": [[472, 0, 0]]
    }, 
    {
      "op": "FullyConnected", 
      "name": "t9_l2_i2h", 
      "attrs": {"num_hidden": "2048"}, 
      "inputs": [[473, 0, 0], [43, 0, 0], [44, 0, 0]]
    }, 
    {
      "op": "FullyConnected", 
      "name": "t9_l2_h2h", 
      "attrs": {"num_hidden": "2048"}, 
      "inputs": [[439, 0, 0], [47, 0, 0], [48, 0, 0]]
    }, 
    {
      "op": "elemwise_add", 
      "name": "_plus58", 
      "inputs": [[474, 0, 0], [475, 0, 0]]
    }, 
    {
      "op": "SliceChannel", 
      "name": "t9_l2_slice", 
      "attrs": {"num_outputs": "4"}, 
      "inputs": [[476, 0, 0]]
    }, 
    {
      "op": "Activation", 
      "name": "activation148", 
      "attrs": {"act_type": "sigmoid"}, 
      "inputs": [[477, 3, 0]]
    }, 
    {
      "op": "Activation", 
      "name": "activation147", 
      "attrs": {"act_type": "sigmoid"}, 
      "inputs": [[477, 2, 0]]
    }, 
    {
      "op": "elemwise_mul", 
      "name": "_mul87", 
      "inputs": [[479, 0, 0], [437, 0, 0]]
    }, 
    {
      "op": "Activation", 
      "name": "activation145", 
      "attrs": {"act_type": "sigmoid"}, 
      "inputs": [[477, 0, 0]]
    }, 
    {
      "op": "Activation", 
      "name": "activation146", 
      "attrs": {"act_type": "tanh"}, 
      "inputs": [[477, 1, 0]]
    }, 
    {
      "op": "elemwise_mul", 
      "name": "_mul88", 
      "inputs": [[481, 0, 0], [482, 0, 0]]
    }, 
    {
      "op": "elemwise_add", 
      "name": "_plus59", 
      "inputs": [[480, 0, 0], [483, 0, 0]]
    }, 
    {
      "op": "Activation", 
      "name": "activation149", 
      "attrs": {"act_type": "tanh"}, 
      "inputs": [[484, 0, 0]]
    }, 
    {
      "op": "elemwise_mul", 
      "name": "_mul89", 
      "inputs": [[478, 0, 0], [485, 0, 0]]
    }, 
    {
      "op": "Dropout", 
      "name": "dropout29", 
      "attrs": {"p": "0.2"}, 
      "inputs": [[486, 0, 0]]
    }, 
    {
      "op": "FullyConnected", 
      "name": "fullyconnected9", 
      "attrs": {"num_hidden": "3043"}, 
      "inputs": [[487, 0, 0], [63, 0, 0], [64, 0, 0]]
    }, 
    {
      "op": "null", 
      "name": "label/9", 
      "inputs": []
    }, 
    {
      "op": "SoftmaxOutput", 
      "name": "t9_sm", 
      "inputs": [[488, 0, 0], [489, 0, 0]]
    }, 
    {
      "op": "null", 
      "name": "data/10", 
      "inputs": []
    }, 
    {
      "op": "Embedding", 
      "name": "t10_embed", 
      "attrs": {
        "input_dim": "3043", 
        "output_dim": "256"
      }, 
      "inputs": [[491, 0, 0], [1, 0, 0]]
    }, 
    {
      "op": "FullyConnected", 
      "name": "t10_l0_i2h", 
      "attrs": {"num_hidden": "2048"}, 
      "inputs": [[492, 0, 0], [3, 0, 0], [4, 0, 0]]
    }, 
    {
      "op": "FullyConnected", 
      "name": "t10_l0_h2h", 
      "attrs": {"num_hidden": "2048"}, 
      "inputs": [[458, 0, 0], [7, 0, 0], [8, 0, 0]]
    }, 
    {
      "op": "elemwise_add", 
      "name": "_plus60", 
      "inputs": [[493, 0, 0], [494, 0, 0]]
    }, 
    {
      "op": "SliceChannel", 
      "name": "t10_l0_slice", 
      "attrs": {"num_outputs": "4"}, 
      "inputs": [[495, 0, 0]]
    }, 
    {
      "op": "Activation", 
      "name": "activation153", 
      "attrs": {"act_type": "sigmoid"}, 
      "inputs": [[496, 3, 0]]
    }, 
    {
      "op": "Activation", 
      "name": "activation152", 
      "attrs": {"act_type": "sigmoid"}, 
      "inputs": [[496, 2, 0]]
    }, 
    {
      "op": "elemwise_mul", 
      "name": "_mul90", 
      "inputs": [[498, 0, 0], [456, 0, 0]]
    }, 
    {
      "op": "Activation", 
      "name": "activation150", 
      "attrs": {"act_type": "sigmoid"}, 
      "inputs": [[496, 0, 0]]
    }, 
    {
      "op": "Activation", 
      "name": "activation151", 
      "attrs": {"act_type": "tanh"}, 
      "inputs": [[496, 1, 0]]
    }, 
    {
      "op": "elemwise_mul", 
      "name": "_mul91", 
      "inputs": [[500, 0, 0], [501, 0, 0]]
    }, 
    {
      "op": "elemwise_add", 
      "name": "_plus61", 
      "inputs": [[499, 0, 0], [502, 0, 0]]
    }, 
    {
      "op": "Activation", 
      "name": "activation154", 
      "attrs": {"act_type": "tanh"}, 
      "inputs": [[503, 0, 0]]
    }, 
    {
      "op": "elemwise_mul", 
      "name": "_mul92", 
      "inputs": [[497, 0, 0], [504, 0, 0]]
    }, 
    {
      "op": "Dropout", 
      "name": "dropout30", 
      "attrs": {"p": "0.2"}, 
      "inputs": [[505, 0, 0]]
    }, 
    {
      "op": "FullyConnected", 
      "name": "t10_l1_i2h", 
      "attrs": {"num_hidden": "2048"}, 
      "inputs": [[506, 0, 0], [23, 0, 0], [24, 0, 0]]
    }, 
    {
      "op": "FullyConnected", 
      "name": "t10_l1_h2h", 
      "attrs": {"num_hidden": "2048"}, 
      "inputs": [[472, 0, 0], [27, 0, 0], [28, 0, 0]]
    }, 
    {
      "op": "elemwise_add", 
      "name": "_plus62", 
      "inputs": [[507, 0, 0], [508, 0, 0]]
    }, 
    {
      "op": "SliceChannel", 
      "name": "t10_l1_slice", 
      "attrs": {"num_outputs": "4"}, 
      "inputs": [[509, 0, 0]]
    }, 
    {
      "op": "Activation", 
      "name": "activation158", 
      "attrs": {"act_type": "sigmoid"}, 
      "inputs": [[510, 3, 0]]
    }, 
    {
      "op": "Activation", 
      "name": "activation157", 
      "attrs": {"act_type": "sigmoid"}, 
      "inputs": [[510, 2, 0]]
    }, 
    {
      "op": "elemwise_mul", 
      "name": "_mul93", 
      "inputs": [[512, 0, 0], [470, 0, 0]]
    }, 
    {
      "op": "Activation", 
      "name": "activation155", 
      "attrs": {"act_type": "sigmoid"}, 
      "inputs": [[510, 0, 0]]
    }, 
    {
      "op": "Activation", 
      "name": "activation156", 
      "attrs": {"act_type": "tanh"}, 
      "inputs": [[510, 1, 0]]
    }, 
    {
      "op": "elemwise_mul", 
      "name": "_mul94", 
      "inputs": [[514, 0, 0], [515, 0, 0]]
    }, 
    {
      "op": "elemwise_add", 
      "name": "_plus63", 
      "inputs": [[513, 0, 0], [516, 0, 0]]
    }, 
    {
      "op": "Activation", 
      "name": "activation159", 
      "attrs": {"act_type": "tanh"}, 
      "inputs": [[517, 0, 0]]
    }, 
    {
      "op": "elemwise_mul", 
      "name": "_mul95", 
      "inputs": [[511, 0, 0], [518, 0, 0]]
    }, 
    {
      "op": "Dropout", 
      "name": "dropout31", 
      "attrs": {"p": "0.2"}, 
      "inputs": [[519, 0, 0]]
    }, 
    {
      "op": "FullyConnected", 
      "name": "t10_l2_i2h", 
      "attrs": {"num_hidden": "2048"}, 
      "inputs": [[520, 0, 0], [43, 0, 0], [44, 0, 0]]
    }, 
    {
      "op": "FullyConnected", 
      "name": "t10_l2_h2h", 
      "attrs": {"num_hidden": "2048"}, 
      "inputs": [[486, 0, 0], [47, 0, 0], [48, 0, 0]]
    }, 
    {
      "op": "elemwise_add", 
      "name": "_plus64", 
      "inputs": [[521, 0, 0], [522, 0, 0]]
    }, 
    {
      "op": "SliceChannel", 
      "name": "t10_l2_slice", 
      "attrs": {"num_outputs": "4"}, 
      "inputs": [[523, 0, 0]]
    }, 
    {
      "op": "Activation", 
      "name": "activation163", 
      "attrs": {"act_type": "sigmoid"}, 
      "inputs": [[524, 3, 0]]
    }, 
    {
      "op": "Activation", 
      "name": "activation162", 
      "attrs": {"act_type": "sigmoid"}, 
      "inputs": [[524, 2, 0]]
    }, 
    {
      "op": "elemwise_mul", 
      "name": "_mul96", 
      "inputs": [[526, 0, 0], [484, 0, 0]]
    }, 
    {
      "op": "Activation", 
      "name": "activation160", 
      "attrs": {"act_type": "sigmoid"}, 
      "inputs": [[524, 0, 0]]
    }, 
    {
      "op": "Activation", 
      "name": "activation161", 
      "attrs": {"act_type": "tanh"}, 
      "inputs": [[524, 1, 0]]
    }, 
    {
      "op": "elemwise_mul", 
      "name": "_mul97", 
      "inputs": [[528, 0, 0], [529, 0, 0]]
    }, 
    {
      "op": "elemwise_add", 
      "name": "_plus65", 
      "inputs": [[527, 0, 0], [530, 0, 0]]
    }, 
    {
      "op": "Activation", 
      "name": "activation164", 
      "attrs": {"act_type": "tanh"}, 
      "inputs": [[531, 0, 0]]
    }, 
    {
      "op": "elemwise_mul", 
      "name": "_mul98", 
      "inputs": [[525, 0, 0], [532, 0, 0]]
    }, 
    {
      "op": "Dropout", 
      "name": "dropout32", 
      "attrs": {"p": "0.2"}, 
      "inputs": [[533, 0, 0]]
    }, 
    {
      "op": "FullyConnected", 
      "name": "fullyconnected10", 
      "attrs": {"num_hidden": "3043"}, 
      "inputs": [[534, 0, 0], [63, 0, 0], [64, 0, 0]]
    }, 
    {
      "op": "null", 
      "name": "label/10", 
      "inputs": []
    }, 
    {
      "op": "SoftmaxOutput", 
      "name": "t10_sm", 
      "inputs": [[535, 0, 0], [536, 0, 0]]
    }, 
    {
      "op": "null", 
      "name": "data/11", 
      "inputs": []
    }, 
    {
      "op": "Embedding", 
      "name": "t11_embed", 
      "attrs": {
        "input_dim": "3043", 
        "output_dim": "256"
      }, 
      "inputs": [[538, 0, 0], [1, 0, 0]]
    }, 
    {
      "op": "FullyConnected", 
      "name": "t11_l0_i2h", 
      "attrs": {"num_hidden": "2048"}, 
      "inputs": [[539, 0, 0], [3, 0, 0], [4, 0, 0]]
    }, 
    {
      "op": "FullyConnected", 
      "name": "t11_l0_h2h", 
      "attrs": {"num_hidden": "2048"}, 
      "inputs": [[505, 0, 0], [7, 0, 0], [8, 0, 0]]
    }, 
    {
      "op": "elemwise_add", 
      "name": "_plus66", 
      "inputs": [[540, 0, 0], [541, 0, 0]]
    }, 
    {
      "op": "SliceChannel", 
      "name": "t11_l0_slice", 
      "attrs": {"num_outputs": "4"}, 
      "inputs": [[542, 0, 0]]
    }, 
    {
      "op": "Activation", 
      "name": "activation168", 
      "attrs": {"act_type": "sigmoid"}, 
      "inputs": [[543, 3, 0]]
    }, 
    {
      "op": "Activation", 
      "name": "activation167", 
      "attrs": {"act_type": "sigmoid"}, 
      "inputs": [[543, 2, 0]]
    }, 
    {
      "op": "elemwise_mul", 
      "name": "_mul99", 
      "inputs": [[545, 0, 0], [503, 0, 0]]
    }, 
    {
      "op": "Activation", 
      "name": "activation165", 
      "attrs": {"act_type": "sigmoid"}, 
      "inputs": [[543, 0, 0]]
    }, 
    {
      "op": "Activation", 
      "name": "activation166", 
      "attrs": {"act_type": "tanh"}, 
      "inputs": [[543, 1, 0]]
    }, 
    {
      "op": "elemwise_mul", 
      "name": "_mul100", 
      "inputs": [[547, 0, 0], [548, 0, 0]]
    }, 
    {
      "op": "elemwise_add", 
      "name": "_plus67", 
      "inputs": [[546, 0, 0], [549, 0, 0]]
    }, 
    {
      "op": "Activation", 
      "name": "activation169", 
      "attrs": {"act_type": "tanh"}, 
      "inputs": [[550, 0, 0]]
    }, 
    {
      "op": "elemwise_mul", 
      "name": "_mul101", 
      "inputs": [[544, 0, 0], [551, 0, 0]]
    }, 
    {
      "op": "Dropout", 
      "name": "dropout33", 
      "attrs": {"p": "0.2"}, 
      "inputs": [[552, 0, 0]]
    }, 
    {
      "op": "FullyConnected", 
      "name": "t11_l1_i2h", 
      "attrs": {"num_hidden": "2048"}, 
      "inputs": [[553, 0, 0], [23, 0, 0], [24, 0, 0]]
    }, 
    {
      "op": "FullyConnected", 
      "name": "t11_l1_h2h", 
      "attrs": {"num_hidden": "2048"}, 
      "inputs": [[519, 0, 0], [27, 0, 0], [28, 0, 0]]
    }, 
    {
      "op": "elemwise_add", 
      "name": "_plus68", 
      "inputs": [[554, 0, 0], [555, 0, 0]]
    }, 
    {
      "op": "SliceChannel", 
      "name": "t11_l1_slice", 
      "attrs": {"num_outputs": "4"}, 
      "inputs": [[556, 0, 0]]
    }, 
    {
      "op": "Activation", 
      "name": "activation173", 
      "attrs": {"act_type": "sigmoid"}, 
      "inputs": [[557, 3, 0]]
    }, 
    {
      "op": "Activation", 
      "name": "activation172", 
      "attrs": {"act_type": "sigmoid"}, 
      "inputs": [[557, 2, 0]]
    }, 
    {
      "op": "elemwise_mul", 
      "name": "_mul102", 
      "inputs": [[559, 0, 0], [517, 0, 0]]
    }, 
    {
      "op": "Activation", 
      "name": "activation170", 
      "attrs": {"act_type": "sigmoid"}, 
      "inputs": [[557, 0, 0]]
    }, 
    {
      "op": "Activation", 
      "name": "activation171", 
      "attrs": {"act_type": "tanh"}, 
      "inputs": [[557, 1, 0]]
    }, 
    {
      "op": "elemwise_mul", 
      "name": "_mul103", 
      "inputs": [[561, 0, 0], [562, 0, 0]]
    }, 
    {
      "op": "elemwise_add", 
      "name": "_plus69", 
      "inputs": [[560, 0, 0], [563, 0, 0]]
    }, 
    {
      "op": "Activation", 
      "name": "activation174", 
      "attrs": {"act_type": "tanh"}, 
      "inputs": [[564, 0, 0]]
    }, 
    {
      "op": "elemwise_mul", 
      "name": "_mul104", 
      "inputs": [[558, 0, 0], [565, 0, 0]]
    }, 
    {
      "op": "Dropout", 
      "name": "dropout34", 
      "attrs": {"p": "0.2"}, 
      "inputs": [[566, 0, 0]]
    }, 
    {
      "op": "FullyConnected", 
      "name": "t11_l2_i2h", 
      "attrs": {"num_hidden": "2048"}, 
      "inputs": [[567, 0, 0], [43, 0, 0], [44, 0, 0]]
    }, 
    {
      "op": "FullyConnected", 
      "name": "t11_l2_h2h", 
      "attrs": {"num_hidden": "2048"}, 
      "inputs": [[533, 0, 0], [47, 0, 0], [48, 0, 0]]
    }, 
    {
      "op": "elemwise_add", 
      "name": "_plus70", 
      "inputs": [[568, 0, 0], [569, 0, 0]]
    }, 
    {
      "op": "SliceChannel", 
      "name": "t11_l2_slice", 
      "attrs": {"num_outputs": "4"}, 
      "inputs": [[570, 0, 0]]
    }, 
    {
      "op": "Activation", 
      "name": "activation178", 
      "attrs": {"act_type": "sigmoid"}, 
      "inputs": [[571, 3, 0]]
    }, 
    {
      "op": "Activation", 
      "name": "activation177", 
      "attrs": {"act_type": "sigmoid"}, 
      "inputs": [[571, 2, 0]]
    }, 
    {
      "op": "elemwise_mul", 
      "name": "_mul105", 
      "inputs": [[573, 0, 0], [531, 0, 0]]
    }, 
    {
      "op": "Activation", 
      "name": "activation175", 
      "attrs": {"act_type": "sigmoid"}, 
      "inputs": [[571, 0, 0]]
    }, 
    {
      "op": "Activation", 
      "name": "activation176", 
      "attrs": {"act_type": "tanh"}, 
      "inputs": [[571, 1, 0]]
    }, 
    {
      "op": "elemwise_mul", 
      "name": "_mul106", 
      "inputs": [[575, 0, 0], [576, 0, 0]]
    }, 
    {
      "op": "elemwise_add", 
      "name": "_plus71", 
      "inputs": [[574, 0, 0], [577, 0, 0]]
    }, 
    {
      "op": "Activation", 
      "name": "activation179", 
      "attrs": {"act_type": "tanh"}, 
      "inputs": [[578, 0, 0]]
    }, 
    {
      "op": "elemwise_mul", 
      "name": "_mul107", 
      "inputs": [[572, 0, 0], [579, 0, 0]]
    }, 
    {
      "op": "Dropout", 
      "name": "dropout35", 
      "attrs": {"p": "0.2"}, 
      "inputs": [[580, 0, 0]]
    }, 
    {
      "op": "FullyConnected", 
      "name": "fullyconnected11", 
      "attrs": {"num_hidden": "3043"}, 
      "inputs": [[581, 0, 0], [63, 0, 0], [64, 0, 0]]
    }, 
    {
      "op": "null", 
      "name": "label/11", 
      "inputs": []
    }, 
    {
      "op": "SoftmaxOutput", 
      "name": "t11_sm", 
      "inputs": [[582, 0, 0], [583, 0, 0]]
    }, 
    {
      "op": "null", 
      "name": "data/12", 
      "inputs": []
    }, 
    {
      "op": "Embedding", 
      "name": "t12_embed", 
      "attrs": {
        "input_dim": "3043", 
        "output_dim": "256"
      }, 
      "inputs": [[585, 0, 0], [1, 0, 0]]
    }, 
    {
      "op": "FullyConnected", 
      "name": "t12_l0_i2h", 
      "attrs": {"num_hidden": "2048"}, 
      "inputs": [[586, 0, 0], [3, 0, 0], [4, 0, 0]]
    }, 
    {
      "op": "FullyConnected", 
      "name": "t12_l0_h2h", 
      "attrs": {"num_hidden": "2048"}, 
      "inputs": [[552, 0, 0], [7, 0, 0], [8, 0, 0]]
    }, 
    {
      "op": "elemwise_add", 
      "name": "_plus72", 
      "inputs": [[587, 0, 0], [588, 0, 0]]
    }, 
    {
      "op": "SliceChannel", 
      "name": "t12_l0_slice", 
      "attrs": {"num_outputs": "4"}, 
      "inputs": [[589, 0, 0]]
    }, 
    {
      "op": "Activation", 
      "name": "activation183", 
      "attrs": {"act_type": "sigmoid"}, 
      "inputs": [[590, 3, 0]]
    }, 
    {
      "op": "Activation", 
      "name": "activation182", 
      "attrs": {"act_type": "sigmoid"}, 
      "inputs": [[590, 2, 0]]
    }, 
    {
      "op": "elemwise_mul", 
      "name": "_mul108", 
      "inputs": [[592, 0, 0], [550, 0, 0]]
    }, 
    {
      "op": "Activation", 
      "name": "activation180", 
      "attrs": {"act_type": "sigmoid"}, 
      "inputs": [[590, 0, 0]]
    }, 
    {
      "op": "Activation", 
      "name": "activation181", 
      "attrs": {"act_type": "tanh"}, 
      "inputs": [[590, 1, 0]]
    }, 
    {
      "op": "elemwise_mul", 
      "name": "_mul109", 
      "inputs": [[594, 0, 0], [595, 0, 0]]
    }, 
    {
      "op": "elemwise_add", 
      "name": "_plus73", 
      "inputs": [[593, 0, 0], [596, 0, 0]]
    }, 
    {
      "op": "Activation", 
      "name": "activation184", 
      "attrs": {"act_type": "tanh"}, 
      "inputs": [[597, 0, 0]]
    }, 
    {
      "op": "elemwise_mul", 
      "name": "_mul110", 
      "inputs": [[591, 0, 0], [598, 0, 0]]
    }, 
    {
      "op": "Dropout", 
      "name": "dropout36", 
      "attrs": {"p": "0.2"}, 
      "inputs": [[599, 0, 0]]
    }, 
    {
      "op": "FullyConnected", 
      "name": "t12_l1_i2h", 
      "attrs": {"num_hidden": "2048"}, 
      "inputs": [[600, 0, 0], [23, 0, 0], [24, 0, 0]]
    }, 
    {
      "op": "FullyConnected", 
      "name": "t12_l1_h2h", 
      "attrs": {"num_hidden": "2048"}, 
      "inputs": [[566, 0, 0], [27, 0, 0], [28, 0, 0]]
    }, 
    {
      "op": "elemwise_add", 
      "name": "_plus74", 
      "inputs": [[601, 0, 0], [602, 0, 0]]
    }, 
    {
      "op": "SliceChannel", 
      "name": "t12_l1_slice", 
      "attrs": {"num_outputs": "4"}, 
      "inputs": [[603, 0, 0]]
    }, 
    {
      "op": "Activation", 
      "name": "activation188", 
      "attrs": {"act_type": "sigmoid"}, 
      "inputs": [[604, 3, 0]]
    }, 
    {
      "op": "Activation", 
      "name": "activation187", 
      "attrs": {"act_type": "sigmoid"}, 
      "inputs": [[604, 2, 0]]
    }, 
    {
      "op": "elemwise_mul", 
      "name": "_mul111", 
      "inputs": [[606, 0, 0], [564, 0, 0]]
    }, 
    {
      "op": "Activation", 
      "name": "activation185", 
      "attrs": {"act_type": "sigmoid"}, 
      "inputs": [[604, 0, 0]]
    }, 
    {
      "op": "Activation", 
      "name": "activation186", 
      "attrs": {"act_type": "tanh"}, 
      "inputs": [[604, 1, 0]]
    }, 
    {
      "op": "elemwise_mul", 
      "name": "_mul112", 
      "inputs": [[608, 0, 0], [609, 0, 0]]
    }, 
    {
      "op": "elemwise_add", 
      "name": "_plus75", 
      "inputs": [[607, 0, 0], [610, 0, 0]]
    }, 
    {
      "op": "Activation", 
      "name": "activation189", 
      "attrs": {"act_type": "tanh"}, 
      "inputs": [[611, 0, 0]]
    }, 
    {
      "op": "elemwise_mul", 
      "name": "_mul113", 
      "inputs": [[605, 0, 0], [612, 0, 0]]
    }, 
    {
      "op": "Dropout", 
      "name": "dropout37", 
      "attrs": {"p": "0.2"}, 
      "inputs": [[613, 0, 0]]
    }, 
    {
      "op": "FullyConnected", 
      "name": "t12_l2_i2h", 
      "attrs": {"num_hidden": "2048"}, 
      "inputs": [[614, 0, 0], [43, 0, 0], [44, 0, 0]]
    }, 
    {
      "op": "FullyConnected", 
      "name": "t12_l2_h2h", 
      "attrs": {"num_hidden": "2048"}, 
      "inputs": [[580, 0, 0], [47, 0, 0], [48, 0, 0]]
    }, 
    {
      "op": "elemwise_add", 
      "name": "_plus76", 
      "inputs": [[615, 0, 0], [616, 0, 0]]
    }, 
    {
      "op": "SliceChannel", 
      "name": "t12_l2_slice", 
      "attrs": {"num_outputs": "4"}, 
      "inputs": [[617, 0, 0]]
    }, 
    {
      "op": "Activation", 
      "name": "activation193", 
      "attrs": {"act_type": "sigmoid"}, 
      "inputs": [[618, 3, 0]]
    }, 
    {
      "op": "Activation", 
      "name": "activation192", 
      "attrs": {"act_type": "sigmoid"}, 
      "inputs": [[618, 2, 0]]
    }, 
    {
      "op": "elemwise_mul", 
      "name": "_mul114", 
      "inputs": [[620, 0, 0], [578, 0, 0]]
    }, 
    {
      "op": "Activation", 
      "name": "activation190", 
      "attrs": {"act_type": "sigmoid"}, 
      "inputs": [[618, 0, 0]]
    }, 
    {
      "op": "Activation", 
      "name": "activation191", 
      "attrs": {"act_type": "tanh"}, 
      "inputs": [[618, 1, 0]]
    }, 
    {
      "op": "elemwise_mul", 
      "name": "_mul115", 
      "inputs": [[622, 0, 0], [623, 0, 0]]
    }, 
    {
      "op": "elemwise_add", 
      "name": "_plus77", 
      "inputs": [[621, 0, 0], [624, 0, 0]]
    }, 
    {
      "op": "Activation", 
      "name": "activation194", 
      "attrs": {"act_type": "tanh"}, 
      "inputs": [[625, 0, 0]]
    }, 
    {
      "op": "elemwise_mul", 
      "name": "_mul116", 
      "inputs": [[619, 0, 0], [626, 0, 0]]
    }, 
    {
      "op": "Dropout", 
      "name": "dropout38", 
      "attrs": {"p": "0.2"}, 
      "inputs": [[627, 0, 0]]
    }, 
    {
      "op": "FullyConnected", 
      "name": "fullyconnected12", 
      "attrs": {"num_hidden": "3043"}, 
      "inputs": [[628, 0, 0], [63, 0, 0], [64, 0, 0]]
    }, 
    {
      "op": "null", 
      "name": "label/12", 
      "inputs": []
    }, 
    {
      "op": "SoftmaxOutput", 
      "name": "t12_sm", 
      "inputs": [[629, 0, 0], [630, 0, 0]]
    }, 
    {
      "op": "null", 
      "name": "data/13", 
      "inputs": []
    }, 
    {
      "op": "Embedding", 
      "name": "t13_embed", 
      "attrs": {
        "input_dim": "3043", 
        "output_dim": "256"
      }, 
      "inputs": [[632, 0, 0], [1, 0, 0]]
    }, 
    {
      "op": "FullyConnected", 
      "name": "t13_l0_i2h", 
      "attrs": {"num_hidden": "2048"}, 
      "inputs": [[633, 0, 0], [3, 0, 0], [4, 0, 0]]
    }, 
    {
      "op": "FullyConnected", 
      "name": "t13_l0_h2h", 
      "attrs": {"num_hidden": "2048"}, 
      "inputs": [[599, 0, 0], [7, 0, 0], [8, 0, 0]]
    }, 
    {
      "op": "elemwise_add", 
      "name": "_plus78", 
      "inputs": [[634, 0, 0], [635, 0, 0]]
    }, 
    {
      "op": "SliceChannel", 
      "name": "t13_l0_slice", 
      "attrs": {"num_outputs": "4"}, 
      "inputs": [[636, 0, 0]]
    }, 
    {
      "op": "Activation", 
      "name": "activation198", 
      "attrs": {"act_type": "sigmoid"}, 
      "inputs": [[637, 3, 0]]
    }, 
    {
      "op": "Activation", 
      "name": "activation197", 
      "attrs": {"act_type": "sigmoid"}, 
      "inputs": [[637, 2, 0]]
    }, 
    {
      "op": "elemwise_mul", 
      "name": "_mul117", 
      "inputs": [[639, 0, 0], [597, 0, 0]]
    }, 
    {
      "op": "Activation", 
      "name": "activation195", 
      "attrs": {"act_type": "sigmoid"}, 
      "inputs": [[637, 0, 0]]
    }, 
    {
      "op": "Activation", 
      "name": "activation196", 
      "attrs": {"act_type": "tanh"}, 
      "inputs": [[637, 1, 0]]
    }, 
    {
      "op": "elemwise_mul", 
      "name": "_mul118", 
      "inputs": [[641, 0, 0], [642, 0, 0]]
    }, 
    {
      "op": "elemwise_add", 
      "name": "_plus79", 
      "inputs": [[640, 0, 0], [643, 0, 0]]
    }, 
    {
      "op": "Activation", 
      "name": "activation199", 
      "attrs": {"act_type": "tanh"}, 
      "inputs": [[644, 0, 0]]
    }, 
    {
      "op": "elemwise_mul", 
      "name": "_mul119", 
      "inputs": [[638, 0, 0], [645, 0, 0]]
    }, 
    {
      "op": "Dropout", 
      "name": "dropout39", 
      "attrs": {"p": "0.2"}, 
      "inputs": [[646, 0, 0]]
    }, 
    {
      "op": "FullyConnected", 
      "name": "t13_l1_i2h", 
      "attrs": {"num_hidden": "2048"}, 
      "inputs": [[647, 0, 0], [23, 0, 0], [24, 0, 0]]
    }, 
    {
      "op": "FullyConnected", 
      "name": "t13_l1_h2h", 
      "attrs": {"num_hidden": "2048"}, 
      "inputs": [[613, 0, 0], [27, 0, 0], [28, 0, 0]]
    }, 
    {
      "op": "elemwise_add", 
      "name": "_plus80", 
      "inputs": [[648, 0, 0], [649, 0, 0]]
    }, 
    {
      "op": "SliceChannel", 
      "name": "t13_l1_slice", 
      "attrs": {"num_outputs": "4"}, 
      "inputs": [[650, 0, 0]]
    }, 
    {
      "op": "Activation", 
      "name": "activation203", 
      "attrs": {"act_type": "sigmoid"}, 
      "inputs": [[651, 3, 0]]
    }, 
    {
      "op": "Activation", 
      "name": "activation202", 
      "attrs": {"act_type": "sigmoid"}, 
      "inputs": [[651, 2, 0]]
    }, 
    {
      "op": "elemwise_mul", 
      "name": "_mul120", 
      "inputs": [[653, 0, 0], [611, 0, 0]]
    }, 
    {
      "op": "Activation", 
      "name": "activation200", 
      "attrs": {"act_type": "sigmoid"}, 
      "inputs": [[651, 0, 0]]
    }, 
    {
      "op": "Activation", 
      "name": "activation201", 
      "attrs": {"act_type": "tanh"}, 
      "inputs": [[651, 1, 0]]
    }, 
    {
      "op": "elemwise_mul", 
      "name": "_mul121", 
      "inputs": [[655, 0, 0], [656, 0, 0]]
    }, 
    {
      "op": "elemwise_add", 
      "name": "_plus81", 
      "inputs": [[654, 0, 0], [657, 0, 0]]
    }, 
    {
      "op": "Activation", 
      "name": "activation204", 
      "attrs": {"act_type": "tanh"}, 
      "inputs": [[658, 0, 0]]
    }, 
    {
      "op": "elemwise_mul", 
      "name": "_mul122", 
      "inputs": [[652, 0, 0], [659, 0, 0]]
    }, 
    {
      "op": "Dropout", 
      "name": "dropout40", 
      "attrs": {"p": "0.2"}, 
      "inputs": [[660, 0, 0]]
    }, 
    {
      "op": "FullyConnected", 
      "name": "t13_l2_i2h", 
      "attrs": {"num_hidden": "2048"}, 
      "inputs": [[661, 0, 0], [43, 0, 0], [44, 0, 0]]
    }, 
    {
      "op": "FullyConnected", 
      "name": "t13_l2_h2h", 
      "attrs": {"num_hidden": "2048"}, 
      "inputs": [[627, 0, 0], [47, 0, 0], [48, 0, 0]]
    }, 
    {
      "op": "elemwise_add", 
      "name": "_plus82", 
      "inputs": [[662, 0, 0], [663, 0, 0]]
    }, 
    {
      "op": "SliceChannel", 
      "name": "t13_l2_slice", 
      "attrs": {"num_outputs": "4"}, 
      "inputs": [[664, 0, 0]]
    }, 
    {
      "op": "Activation", 
      "name": "activation208", 
      "attrs": {"act_type": "sigmoid"}, 
      "inputs": [[665, 3, 0]]
    }, 
    {
      "op": "Activation", 
      "name": "activation207", 
      "attrs": {"act_type": "sigmoid"}, 
      "inputs": [[665, 2, 0]]
    }, 
    {
      "op": "elemwise_mul", 
      "name": "_mul123", 
      "inputs": [[667, 0, 0], [625, 0, 0]]
    }, 
    {
      "op": "Activation", 
      "name": "activation205", 
      "attrs": {"act_type": "sigmoid"}, 
      "inputs": [[665, 0, 0]]
    }, 
    {
      "op": "Activation", 
      "name": "activation206", 
      "attrs": {"act_type": "tanh"}, 
      "inputs": [[665, 1, 0]]
    }, 
    {
      "op": "elemwise_mul", 
      "name": "_mul124", 
      "inputs": [[669, 0, 0], [670, 0, 0]]
    }, 
    {
      "op": "elemwise_add", 
      "name": "_plus83", 
      "inputs": [[668, 0, 0], [671, 0, 0]]
    }, 
    {
      "op": "Activation", 
      "name": "activation209", 
      "attrs": {"act_type": "tanh"}, 
      "inputs": [[672, 0, 0]]
    }, 
    {
      "op": "elemwise_mul", 
      "name": "_mul125", 
      "inputs": [[666, 0, 0], [673, 0, 0]]
    }, 
    {
      "op": "Dropout", 
      "name": "dropout41", 
      "attrs": {"p": "0.2"}, 
      "inputs": [[674, 0, 0]]
    }, 
    {
      "op": "FullyConnected", 
      "name": "fullyconnected13", 
      "attrs": {"num_hidden": "3043"}, 
      "inputs": [[675, 0, 0], [63, 0, 0], [64, 0, 0]]
    }, 
    {
      "op": "null", 
      "name": "label/13", 
      "inputs": []
    }, 
    {
      "op": "SoftmaxOutput", 
      "name": "t13_sm", 
      "inputs": [[676, 0, 0], [677, 0, 0]]
    }, 
    {
      "op": "null", 
      "name": "data/14", 
      "inputs": []
    }, 
    {
      "op": "Embedding", 
      "name": "t14_embed", 
      "attrs": {
        "input_dim": "3043", 
        "output_dim": "256"
      }, 
      "inputs": [[679, 0, 0], [1, 0, 0]]
    }, 
    {
      "op": "FullyConnected", 
      "name": "t14_l0_i2h", 
      "attrs": {"num_hidden": "2048"}, 
      "inputs": [[680, 0, 0], [3, 0, 0], [4, 0, 0]]
    }, 
    {
      "op": "FullyConnected", 
      "name": "t14_l0_h2h", 
      "attrs": {"num_hidden": "2048"}, 
      "inputs": [[646, 0, 0], [7, 0, 0], [8, 0, 0]]
    }, 
    {
      "op": "elemwise_add", 
      "name": "_plus84", 
      "inputs": [[681, 0, 0], [682, 0, 0]]
    }, 
    {
      "op": "SliceChannel", 
      "name": "t14_l0_slice", 
      "attrs": {"num_outputs": "4"}, 
      "inputs": [[683, 0, 0]]
    }, 
    {
      "op": "Activation", 
      "name": "activation213", 
      "attrs": {"act_type": "sigmoid"}, 
      "inputs": [[684, 3, 0]]
    }, 
    {
      "op": "Activation", 
      "name": "activation212", 
      "attrs": {"act_type": "sigmoid"}, 
      "inputs": [[684, 2, 0]]
    }, 
    {
      "op": "elemwise_mul", 
      "name": "_mul126", 
      "inputs": [[686, 0, 0], [644, 0, 0]]
    }, 
    {
      "op": "Activation", 
      "name": "activation210", 
      "attrs": {"act_type": "sigmoid"}, 
      "inputs": [[684, 0, 0]]
    }, 
    {
      "op": "Activation", 
      "name": "activation211", 
      "attrs": {"act_type": "tanh"}, 
      "inputs": [[684, 1, 0]]
    }, 
    {
      "op": "elemwise_mul", 
      "name": "_mul127", 
      "inputs": [[688, 0, 0], [689, 0, 0]]
    }, 
    {
      "op": "elemwise_add", 
      "name": "_plus85", 
      "inputs": [[687, 0, 0], [690, 0, 0]]
    }, 
    {
      "op": "Activation", 
      "name": "activation214", 
      "attrs": {"act_type": "tanh"}, 
      "inputs": [[691, 0, 0]]
    }, 
    {
      "op": "elemwise_mul", 
      "name": "_mul128", 
      "inputs": [[685, 0, 0], [692, 0, 0]]
    }, 
    {
      "op": "Dropout", 
      "name": "dropout42", 
      "attrs": {"p": "0.2"}, 
      "inputs": [[693, 0, 0]]
    }, 
    {
      "op": "FullyConnected", 
      "name": "t14_l1_i2h", 
      "attrs": {"num_hidden": "2048"}, 
      "inputs": [[694, 0, 0], [23, 0, 0], [24, 0, 0]]
    }, 
    {
      "op": "FullyConnected", 
      "name": "t14_l1_h2h", 
      "attrs": {"num_hidden": "2048"}, 
      "inputs": [[660, 0, 0], [27, 0, 0], [28, 0, 0]]
    }, 
    {
      "op": "elemwise_add", 
      "name": "_plus86", 
      "inputs": [[695, 0, 0], [696, 0, 0]]
    }, 
    {
      "op": "SliceChannel", 
      "name": "t14_l1_slice", 
      "attrs": {"num_outputs": "4"}, 
      "inputs": [[697, 0, 0]]
    }, 
    {
      "op": "Activation", 
      "name": "activation218", 
      "attrs": {"act_type": "sigmoid"}, 
      "inputs": [[698, 3, 0]]
    }, 
    {
      "op": "Activation", 
      "name": "activation217", 
      "attrs": {"act_type": "sigmoid"}, 
      "inputs": [[698, 2, 0]]
    }, 
    {
      "op": "elemwise_mul", 
      "name": "_mul129", 
      "inputs": [[700, 0, 0], [658, 0, 0]]
    }, 
    {
      "op": "Activation", 
      "name": "activation215", 
      "attrs": {"act_type": "sigmoid"}, 
      "inputs": [[698, 0, 0]]
    }, 
    {
      "op": "Activation", 
      "name": "activation216", 
      "attrs": {"act_type": "tanh"}, 
      "inputs": [[698, 1, 0]]
    }, 
    {
      "op": "elemwise_mul", 
      "name": "_mul130", 
      "inputs": [[702, 0, 0], [703, 0, 0]]
    }, 
    {
      "op": "elemwise_add", 
      "name": "_plus87", 
      "inputs": [[701, 0, 0], [704, 0, 0]]
    }, 
    {
      "op": "Activation", 
      "name": "activation219", 
      "attrs": {"act_type": "tanh"}, 
      "inputs": [[705, 0, 0]]
    }, 
    {
      "op": "elemwise_mul", 
      "name": "_mul131", 
      "inputs": [[699, 0, 0], [706, 0, 0]]
    }, 
    {
      "op": "Dropout", 
      "name": "dropout43", 
      "attrs": {"p": "0.2"}, 
      "inputs": [[707, 0, 0]]
    }, 
    {
      "op": "FullyConnected", 
      "name": "t14_l2_i2h", 
      "attrs": {"num_hidden": "2048"}, 
      "inputs": [[708, 0, 0], [43, 0, 0], [44, 0, 0]]
    }, 
    {
      "op": "FullyConnected", 
      "name": "t14_l2_h2h", 
      "attrs": {"num_hidden": "2048"}, 
      "inputs": [[674, 0, 0], [47, 0, 0], [48, 0, 0]]
    }, 
    {
      "op": "elemwise_add", 
      "name": "_plus88", 
      "inputs": [[709, 0, 0], [710, 0, 0]]
    }, 
    {
      "op": "SliceChannel", 
      "name": "t14_l2_slice", 
      "attrs": {"num_outputs": "4"}, 
      "inputs": [[711, 0, 0]]
    }, 
    {
      "op": "Activation", 
      "name": "activation223", 
      "attrs": {"act_type": "sigmoid"}, 
      "inputs": [[712, 3, 0]]
    }, 
    {
      "op": "Activation", 
      "name": "activation222", 
      "attrs": {"act_type": "sigmoid"}, 
      "inputs": [[712, 2, 0]]
    }, 
    {
      "op": "elemwise_mul", 
      "name": "_mul132", 
      "inputs": [[714, 0, 0], [672, 0, 0]]
    }, 
    {
      "op": "Activation", 
      "name": "activation220", 
      "attrs": {"act_type": "sigmoid"}, 
      "inputs": [[712, 0, 0]]
    }, 
    {
      "op": "Activation", 
      "name": "activation221", 
      "attrs": {"act_type": "tanh"}, 
      "inputs": [[712, 1, 0]]
    }, 
    {
      "op": "elemwise_mul", 
      "name": "_mul133", 
      "inputs": [[716, 0, 0], [717, 0, 0]]
    }, 
    {
      "op": "elemwise_add", 
      "name": "_plus89", 
      "inputs": [[715, 0, 0], [718, 0, 0]]
    }, 
    {
      "op": "Activation", 
      "name": "activation224", 
      "attrs": {"act_type": "tanh"}, 
      "inputs": [[719, 0, 0]]
    }, 
    {
      "op": "elemwise_mul", 
      "name": "_mul134", 
      "inputs": [[713, 0, 0], [720, 0, 0]]
    }, 
    {
      "op": "Dropout", 
      "name": "dropout44", 
      "attrs": {"p": "0.2"}, 
      "inputs": [[721, 0, 0]]
    }, 
    {
      "op": "FullyConnected", 
      "name": "fullyconnected14", 
      "attrs": {"num_hidden": "3043"}, 
      "inputs": [[722, 0, 0], [63, 0, 0], [64, 0, 0]]
    }, 
    {
      "op": "null", 
      "name": "label/14", 
      "inputs": []
    }, 
    {
      "op": "SoftmaxOutput", 
      "name": "t14_sm", 
      "inputs": [[723, 0, 0], [724, 0, 0]]
    }, 
    {
      "op": "null", 
      "name": "data/15", 
      "inputs": []
    }, 
    {
      "op": "Embedding", 
      "name": "t15_embed", 
      "attrs": {
        "input_dim": "3043", 
        "output_dim": "256"
      }, 
      "inputs": [[726, 0, 0], [1, 0, 0]]
    }, 
    {
      "op": "FullyConnected", 
      "name": "t15_l0_i2h", 
      "attrs": {"num_hidden": "2048"}, 
      "inputs": [[727, 0, 0], [3, 0, 0], [4, 0, 0]]
    }, 
    {
      "op": "FullyConnected", 
      "name": "t15_l0_h2h", 
      "attrs": {"num_hidden": "2048"}, 
      "inputs": [[693, 0, 0], [7, 0, 0], [8, 0, 0]]
    }, 
    {
      "op": "elemwise_add", 
      "name": "_plus90", 
      "inputs": [[728, 0, 0], [729, 0, 0]]
    }, 
    {
      "op": "SliceChannel", 
      "name": "t15_l0_slice", 
      "attrs": {"num_outputs": "4"}, 
      "inputs": [[730, 0, 0]]
    }, 
    {
      "op": "Activation", 
      "name": "activation228", 
      "attrs": {"act_type": "sigmoid"}, 
      "inputs": [[731, 3, 0]]
    }, 
    {
      "op": "Activation", 
      "name": "activation227", 
      "attrs": {"act_type": "sigmoid"}, 
      "inputs": [[731, 2, 0]]
    }, 
    {
      "op": "elemwise_mul", 
      "name": "_mul135", 
      "inputs": [[733, 0, 0], [691, 0, 0]]
    }, 
    {
      "op": "Activation", 
      "name": "activation225", 
      "attrs": {"act_type": "sigmoid"}, 
      "inputs": [[731, 0, 0]]
    }, 
    {
      "op": "Activation", 
      "name": "activation226", 
      "attrs": {"act_type": "tanh"}, 
      "inputs": [[731, 1, 0]]
    }, 
    {
      "op": "elemwise_mul", 
      "name": "_mul136", 
      "inputs": [[735, 0, 0], [736, 0, 0]]
    }, 
    {
      "op": "elemwise_add", 
      "name": "_plus91", 
      "inputs": [[734, 0, 0], [737, 0, 0]]
    }, 
    {
      "op": "Activation", 
      "name": "activation229", 
      "attrs": {"act_type": "tanh"}, 
      "inputs": [[738, 0, 0]]
    }, 
    {
      "op": "elemwise_mul", 
      "name": "_mul137", 
      "inputs": [[732, 0, 0], [739, 0, 0]]
    }, 
    {
      "op": "Dropout", 
      "name": "dropout45", 
      "attrs": {"p": "0.2"}, 
      "inputs": [[740, 0, 0]]
    }, 
    {
      "op": "FullyConnected", 
      "name": "t15_l1_i2h", 
      "attrs": {"num_hidden": "2048"}, 
      "inputs": [[741, 0, 0], [23, 0, 0], [24, 0, 0]]
    }, 
    {
      "op": "FullyConnected", 
      "name": "t15_l1_h2h", 
      "attrs": {"num_hidden": "2048"}, 
      "inputs": [[707, 0, 0], [27, 0, 0], [28, 0, 0]]
    }, 
    {
      "op": "elemwise_add", 
      "name": "_plus92", 
      "inputs": [[742, 0, 0], [743, 0, 0]]
    }, 
    {
      "op": "SliceChannel", 
      "name": "t15_l1_slice", 
      "attrs": {"num_outputs": "4"}, 
      "inputs": [[744, 0, 0]]
    }, 
    {
      "op": "Activation", 
      "name": "activation233", 
      "attrs": {"act_type": "sigmoid"}, 
      "inputs": [[745, 3, 0]]
    }, 
    {
      "op": "Activation", 
      "name": "activation232", 
      "attrs": {"act_type": "sigmoid"}, 
      "inputs": [[745, 2, 0]]
    }, 
    {
      "op": "elemwise_mul", 
      "name": "_mul138", 
      "inputs": [[747, 0, 0], [705, 0, 0]]
    }, 
    {
      "op": "Activation", 
      "name": "activation230", 
      "attrs": {"act_type": "sigmoid"}, 
      "inputs": [[745, 0, 0]]
    }, 
    {
      "op": "Activation", 
      "name": "activation231", 
      "attrs": {"act_type": "tanh"}, 
      "inputs": [[745, 1, 0]]
    }, 
    {
      "op": "elemwise_mul", 
      "name": "_mul139", 
      "inputs": [[749, 0, 0], [750, 0, 0]]
    }, 
    {
      "op": "elemwise_add", 
      "name": "_plus93", 
      "inputs": [[748, 0, 0], [751, 0, 0]]
    }, 
    {
      "op": "Activation", 
      "name": "activation234", 
      "attrs": {"act_type": "tanh"}, 
      "inputs": [[752, 0, 0]]
    }, 
    {
      "op": "elemwise_mul", 
      "name": "_mul140", 
      "inputs": [[746, 0, 0], [753, 0, 0]]
    }, 
    {
      "op": "Dropout", 
      "name": "dropout46", 
      "attrs": {"p": "0.2"}, 
      "inputs": [[754, 0, 0]]
    }, 
    {
      "op": "FullyConnected", 
      "name": "t15_l2_i2h", 
      "attrs": {"num_hidden": "2048"}, 
      "inputs": [[755, 0, 0], [43, 0, 0], [44, 0, 0]]
    }, 
    {
      "op": "FullyConnected", 
      "name": "t15_l2_h2h", 
      "attrs": {"num_hidden": "2048"}, 
      "inputs": [[721, 0, 0], [47, 0, 0], [48, 0, 0]]
    }, 
    {
      "op": "elemwise_add", 
      "name": "_plus94", 
      "inputs": [[756, 0, 0], [757, 0, 0]]
    }, 
    {
      "op": "SliceChannel", 
      "name": "t15_l2_slice", 
      "attrs": {"num_outputs": "4"}, 
      "inputs": [[758, 0, 0]]
    }, 
    {
      "op": "Activation", 
      "name": "activation238", 
      "attrs": {"act_type": "sigmoid"}, 
      "inputs": [[759, 3, 0]]
    }, 
    {
      "op": "Activation", 
      "name": "activation237", 
      "attrs": {"act_type": "sigmoid"}, 
      "inputs": [[759, 2, 0]]
    }, 
    {
      "op": "elemwise_mul", 
      "name": "_mul141", 
      "inputs": [[761, 0, 0], [719, 0, 0]]
    }, 
    {
      "op": "Activation", 
      "name": "activation235", 
      "attrs": {"act_type": "sigmoid"}, 
      "inputs": [[759, 0, 0]]
    }, 
    {
      "op": "Activation", 
      "name": "activation236", 
      "attrs": {"act_type": "tanh"}, 
      "inputs": [[759, 1, 0]]
    }, 
    {
      "op": "elemwise_mul", 
      "name": "_mul142", 
      "inputs": [[763, 0, 0], [764, 0, 0]]
    }, 
    {
      "op": "elemwise_add", 
      "name": "_plus95", 
      "inputs": [[762, 0, 0], [765, 0, 0]]
    }, 
    {
      "op": "Activation", 
      "name": "activation239", 
      "attrs": {"act_type": "tanh"}, 
      "inputs": [[766, 0, 0]]
    }, 
    {
      "op": "elemwise_mul", 
      "name": "_mul143", 
      "inputs": [[760, 0, 0], [767, 0, 0]]
    }, 
    {
      "op": "Dropout", 
      "name": "dropout47", 
      "attrs": {"p": "0.2"}, 
      "inputs": [[768, 0, 0]]
    }, 
    {
      "op": "FullyConnected", 
      "name": "fullyconnected15", 
      "attrs": {"num_hidden": "3043"}, 
      "inputs": [[769, 0, 0], [63, 0, 0], [64, 0, 0]]
    }, 
    {
      "op": "null", 
      "name": "label/15", 
      "inputs": []
    }, 
    {
      "op": "SoftmaxOutput", 
      "name": "t15_sm", 
      "inputs": [[770, 0, 0], [771, 0, 0]]
    }, 
    {
      "op": "null", 
      "name": "data/16", 
      "inputs": []
    }, 
    {
      "op": "Embedding", 
      "name": "t16_embed", 
      "attrs": {
        "input_dim": "3043", 
        "output_dim": "256"
      }, 
      "inputs": [[773, 0, 0], [1, 0, 0]]
    }, 
    {
      "op": "FullyConnected", 
      "name": "t16_l0_i2h", 
      "attrs": {"num_hidden": "2048"}, 
      "inputs": [[774, 0, 0], [3, 0, 0], [4, 0, 0]]
    }, 
    {
      "op": "FullyConnected", 
      "name": "t16_l0_h2h", 
      "attrs": {"num_hidden": "2048"}, 
      "inputs": [[740, 0, 0], [7, 0, 0], [8, 0, 0]]
    }, 
    {
      "op": "elemwise_add", 
      "name": "_plus96", 
      "inputs": [[775, 0, 0], [776, 0, 0]]
    }, 
    {
      "op": "SliceChannel", 
      "name": "t16_l0_slice", 
      "attrs": {"num_outputs": "4"}, 
      "inputs": [[777, 0, 0]]
    }, 
    {
      "op": "Activation", 
      "name": "activation243", 
      "attrs": {"act_type": "sigmoid"}, 
      "inputs": [[778, 3, 0]]
    }, 
    {
      "op": "Activation", 
      "name": "activation242", 
      "attrs": {"act_type": "sigmoid"}, 
      "inputs": [[778, 2, 0]]
    }, 
    {
      "op": "elemwise_mul", 
      "name": "_mul144", 
      "inputs": [[780, 0, 0], [738, 0, 0]]
    }, 
    {
      "op": "Activation", 
      "name": "activation240", 
      "attrs": {"act_type": "sigmoid"}, 
      "inputs": [[778, 0, 0]]
    }, 
    {
      "op": "Activation", 
      "name": "activation241", 
      "attrs": {"act_type": "tanh"}, 
      "inputs": [[778, 1, 0]]
    }, 
    {
      "op": "elemwise_mul", 
      "name": "_mul145", 
      "inputs": [[782, 0, 0], [783, 0, 0]]
    }, 
    {
      "op": "elemwise_add", 
      "name": "_plus97", 
      "inputs": [[781, 0, 0], [784, 0, 0]]
    }, 
    {
      "op": "Activation", 
      "name": "activation244", 
      "attrs": {"act_type": "tanh"}, 
      "inputs": [[785, 0, 0]]
    }, 
    {
      "op": "elemwise_mul", 
      "name": "_mul146", 
      "inputs": [[779, 0, 0], [786, 0, 0]]
    }, 
    {
      "op": "Dropout", 
      "name": "dropout48", 
      "attrs": {"p": "0.2"}, 
      "inputs": [[787, 0, 0]]
    }, 
    {
      "op": "FullyConnected", 
      "name": "t16_l1_i2h", 
      "attrs": {"num_hidden": "2048"}, 
      "inputs": [[788, 0, 0], [23, 0, 0], [24, 0, 0]]
    }, 
    {
      "op": "FullyConnected", 
      "name": "t16_l1_h2h", 
      "attrs": {"num_hidden": "2048"}, 
      "inputs": [[754, 0, 0], [27, 0, 0], [28, 0, 0]]
    }, 
    {
      "op": "elemwise_add", 
      "name": "_plus98", 
      "inputs": [[789, 0, 0], [790, 0, 0]]
    }, 
    {
      "op": "SliceChannel", 
      "name": "t16_l1_slice", 
      "attrs": {"num_outputs": "4"}, 
      "inputs": [[791, 0, 0]]
    }, 
    {
      "op": "Activation", 
      "name": "activation248", 
      "attrs": {"act_type": "sigmoid"}, 
      "inputs": [[792, 3, 0]]
    }, 
    {
      "op": "Activation", 
      "name": "activation247", 
      "attrs": {"act_type": "sigmoid"}, 
      "inputs": [[792, 2, 0]]
    }, 
    {
      "op": "elemwise_mul", 
      "name": "_mul147", 
      "inputs": [[794, 0, 0], [752, 0, 0]]
    }, 
    {
      "op": "Activation", 
      "name": "activation245", 
      "attrs": {"act_type": "sigmoid"}, 
      "inputs": [[792, 0, 0]]
    }, 
    {
      "op": "Activation", 
      "name": "activation246", 
      "attrs": {"act_type": "tanh"}, 
      "inputs": [[792, 1, 0]]
    }, 
    {
      "op": "elemwise_mul", 
      "name": "_mul148", 
      "inputs": [[796, 0, 0], [797, 0, 0]]
    }, 
    {
      "op": "elemwise_add", 
      "name": "_plus99", 
      "inputs": [[795, 0, 0], [798, 0, 0]]
    }, 
    {
      "op": "Activation", 
      "name": "activation249", 
      "attrs": {"act_type": "tanh"}, 
      "inputs": [[799, 0, 0]]
    }, 
    {
      "op": "elemwise_mul", 
      "name": "_mul149", 
      "inputs": [[793, 0, 0], [800, 0, 0]]
    }, 
    {
      "op": "Dropout", 
      "name": "dropout49", 
      "attrs": {"p": "0.2"}, 
      "inputs": [[801, 0, 0]]
    }, 
    {
      "op": "FullyConnected", 
      "name": "t16_l2_i2h", 
      "attrs": {"num_hidden": "2048"}, 
      "inputs": [[802, 0, 0], [43, 0, 0], [44, 0, 0]]
    }, 
    {
      "op": "FullyConnected", 
      "name": "t16_l2_h2h", 
      "attrs": {"num_hidden": "2048"}, 
      "inputs": [[768, 0, 0], [47, 0, 0], [48, 0, 0]]
    }, 
    {
      "op": "elemwise_add", 
      "name": "_plus100", 
      "inputs": [[803, 0, 0], [804, 0, 0]]
    }, 
    {
      "op": "SliceChannel", 
      "name": "t16_l2_slice", 
      "attrs": {"num_outputs": "4"}, 
      "inputs": [[805, 0, 0]]
    }, 
    {
      "op": "Activation", 
      "name": "activation253", 
      "attrs": {"act_type": "sigmoid"}, 
      "inputs": [[806, 3, 0]]
    }, 
    {
      "op": "Activation", 
      "name": "activation252", 
      "attrs": {"act_type": "sigmoid"}, 
      "inputs": [[806, 2, 0]]
    }, 
    {
      "op": "elemwise_mul", 
      "name": "_mul150", 
      "inputs": [[808, 0, 0], [766, 0, 0]]
    }, 
    {
      "op": "Activation", 
      "name": "activation250", 
      "attrs": {"act_type": "sigmoid"}, 
      "inputs": [[806, 0, 0]]
    }, 
    {
      "op": "Activation", 
      "name": "activation251", 
      "attrs": {"act_type": "tanh"}, 
      "inputs": [[806, 1, 0]]
    }, 
    {
      "op": "elemwise_mul", 
      "name": "_mul151", 
      "inputs": [[810, 0, 0], [811, 0, 0]]
    }, 
    {
      "op": "elemwise_add", 
      "name": "_plus101", 
      "inputs": [[809, 0, 0], [812, 0, 0]]
    }, 
    {
      "op": "Activation", 
      "name": "activation254", 
      "attrs": {"act_type": "tanh"}, 
      "inputs": [[813, 0, 0]]
    }, 
    {
      "op": "elemwise_mul", 
      "name": "_mul152", 
      "inputs": [[807, 0, 0], [814, 0, 0]]
    }, 
    {
      "op": "Dropout", 
      "name": "dropout50", 
      "attrs": {"p": "0.2"}, 
      "inputs": [[815, 0, 0]]
    }, 
    {
      "op": "FullyConnected", 
      "name": "fullyconnected16", 
      "attrs": {"num_hidden": "3043"}, 
      "inputs": [[816, 0, 0], [63, 0, 0], [64, 0, 0]]
    }, 
    {
      "op": "null", 
      "name": "label/16", 
      "inputs": []
    }, 
    {
      "op": "SoftmaxOutput", 
      "name": "t16_sm", 
      "inputs": [[817, 0, 0], [818, 0, 0]]
    }, 
    {
      "op": "null", 
      "name": "data/17", 
      "inputs": []
    }, 
    {
      "op": "Embedding", 
      "name": "t17_embed", 
      "attrs": {
        "input_dim": "3043", 
        "output_dim": "256"
      }, 
      "inputs": [[820, 0, 0], [1, 0, 0]]
    }, 
    {
      "op": "FullyConnected", 
      "name": "t17_l0_i2h", 
      "attrs": {"num_hidden": "2048"}, 
      "inputs": [[821, 0, 0], [3, 0, 0], [4, 0, 0]]
    }, 
    {
      "op": "FullyConnected", 
      "name": "t17_l0_h2h", 
      "attrs": {"num_hidden": "2048"}, 
      "inputs": [[787, 0, 0], [7, 0, 0], [8, 0, 0]]
    }, 
    {
      "op": "elemwise_add", 
      "name": "_plus102", 
      "inputs": [[822, 0, 0], [823, 0, 0]]
    }, 
    {
      "op": "SliceChannel", 
      "name": "t17_l0_slice", 
      "attrs": {"num_outputs": "4"}, 
      "inputs": [[824, 0, 0]]
    }, 
    {
      "op": "Activation", 
      "name": "activation258", 
      "attrs": {"act_type": "sigmoid"}, 
      "inputs": [[825, 3, 0]]
    }, 
    {
      "op": "Activation", 
      "name": "activation257", 
      "attrs": {"act_type": "sigmoid"}, 
      "inputs": [[825, 2, 0]]
    }, 
    {
      "op": "elemwise_mul", 
      "name": "_mul153", 
      "inputs": [[827, 0, 0], [785, 0, 0]]
    }, 
    {
      "op": "Activation", 
      "name": "activation255", 
      "attrs": {"act_type": "sigmoid"}, 
      "inputs": [[825, 0, 0]]
    }, 
    {
      "op": "Activation", 
      "name": "activation256", 
      "attrs": {"act_type": "tanh"}, 
      "inputs": [[825, 1, 0]]
    }, 
    {
      "op": "elemwise_mul", 
      "name": "_mul154", 
      "inputs": [[829, 0, 0], [830, 0, 0]]
    }, 
    {
      "op": "elemwise_add", 
      "name": "_plus103", 
      "inputs": [[828, 0, 0], [831, 0, 0]]
    }, 
    {
      "op": "Activation", 
      "name": "activation259", 
      "attrs": {"act_type": "tanh"}, 
      "inputs": [[832, 0, 0]]
    }, 
    {
      "op": "elemwise_mul", 
      "name": "_mul155", 
      "inputs": [[826, 0, 0], [833, 0, 0]]
    }, 
    {
      "op": "Dropout", 
      "name": "dropout51", 
      "attrs": {"p": "0.2"}, 
      "inputs": [[834, 0, 0]]
    }, 
    {
      "op": "FullyConnected", 
      "name": "t17_l1_i2h", 
      "attrs": {"num_hidden": "2048"}, 
      "inputs": [[835, 0, 0], [23, 0, 0], [24, 0, 0]]
    }, 
    {
      "op": "FullyConnected", 
      "name": "t17_l1_h2h", 
      "attrs": {"num_hidden": "2048"}, 
      "inputs": [[801, 0, 0], [27, 0, 0], [28, 0, 0]]
    }, 
    {
      "op": "elemwise_add", 
      "name": "_plus104", 
      "inputs": [[836, 0, 0], [837, 0, 0]]
    }, 
    {
      "op": "SliceChannel", 
      "name": "t17_l1_slice", 
      "attrs": {"num_outputs": "4"}, 
      "inputs": [[838, 0, 0]]
    }, 
    {
      "op": "Activation", 
      "name": "activation263", 
      "attrs": {"act_type": "sigmoid"}, 
      "inputs": [[839, 3, 0]]
    }, 
    {
      "op": "Activation", 
      "name": "activation262", 
      "attrs": {"act_type": "sigmoid"}, 
      "inputs": [[839, 2, 0]]
    }, 
    {
      "op": "elemwise_mul", 
      "name": "_mul156", 
      "inputs": [[841, 0, 0], [799, 0, 0]]
    }, 
    {
      "op": "Activation", 
      "name": "activation260", 
      "attrs": {"act_type": "sigmoid"}, 
      "inputs": [[839, 0, 0]]
    }, 
    {
      "op": "Activation", 
      "name": "activation261", 
      "attrs": {"act_type": "tanh"}, 
      "inputs": [[839, 1, 0]]
    }, 
    {
      "op": "elemwise_mul", 
      "name": "_mul157", 
      "inputs": [[843, 0, 0], [844, 0, 0]]
    }, 
    {
      "op": "elemwise_add", 
      "name": "_plus105", 
      "inputs": [[842, 0, 0], [845, 0, 0]]
    }, 
    {
      "op": "Activation", 
      "name": "activation264", 
      "attrs": {"act_type": "tanh"}, 
      "inputs": [[846, 0, 0]]
    }, 
    {
      "op": "elemwise_mul", 
      "name": "_mul158", 
      "inputs": [[840, 0, 0], [847, 0, 0]]
    }, 
    {
      "op": "Dropout", 
      "name": "dropout52", 
      "attrs": {"p": "0.2"}, 
      "inputs": [[848, 0, 0]]
    }, 
    {
      "op": "FullyConnected", 
      "name": "t17_l2_i2h", 
      "attrs": {"num_hidden": "2048"}, 
      "inputs": [[849, 0, 0], [43, 0, 0], [44, 0, 0]]
    }, 
    {
      "op": "FullyConnected", 
      "name": "t17_l2_h2h", 
      "attrs": {"num_hidden": "2048"}, 
      "inputs": [[815, 0, 0], [47, 0, 0], [48, 0, 0]]
    }, 
    {
      "op": "elemwise_add", 
      "name": "_plus106", 
      "inputs": [[850, 0, 0], [851, 0, 0]]
    }, 
    {
      "op": "SliceChannel", 
      "name": "t17_l2_slice", 
      "attrs": {"num_outputs": "4"}, 
      "inputs": [[852, 0, 0]]
    }, 
    {
      "op": "Activation", 
      "name": "activation268", 
      "attrs": {"act_type": "sigmoid"}, 
      "inputs": [[853, 3, 0]]
    }, 
    {
      "op": "Activation", 
      "name": "activation267", 
      "attrs": {"act_type": "sigmoid"}, 
      "inputs": [[853, 2, 0]]
    }, 
    {
      "op": "elemwise_mul", 
      "name": "_mul159", 
      "inputs": [[855, 0, 0], [813, 0, 0]]
    }, 
    {
      "op": "Activation", 
      "name": "activation265", 
      "attrs": {"act_type": "sigmoid"}, 
      "inputs": [[853, 0, 0]]
    }, 
    {
      "op": "Activation", 
      "name": "activation266", 
      "attrs": {"act_type": "tanh"}, 
      "inputs": [[853, 1, 0]]
    }, 
    {
      "op": "elemwise_mul", 
      "name": "_mul160", 
      "inputs": [[857, 0, 0], [858, 0, 0]]
    }, 
    {
      "op": "elemwise_add", 
      "name": "_plus107", 
      "inputs": [[856, 0, 0], [859, 0, 0]]
    }, 
    {
      "op": "Activation", 
      "name": "activation269", 
      "attrs": {"act_type": "tanh"}, 
      "inputs": [[860, 0, 0]]
    }, 
    {
      "op": "elemwise_mul", 
      "name": "_mul161", 
      "inputs": [[854, 0, 0], [861, 0, 0]]
    }, 
    {
      "op": "Dropout", 
      "name": "dropout53", 
      "attrs": {"p": "0.2"}, 
      "inputs": [[862, 0, 0]]
    }, 
    {
      "op": "FullyConnected", 
      "name": "fullyconnected17", 
      "attrs": {"num_hidden": "3043"}, 
      "inputs": [[863, 0, 0], [63, 0, 0], [64, 0, 0]]
    }, 
    {
      "op": "null", 
      "name": "label/17", 
      "inputs": []
    }, 
    {
      "op": "SoftmaxOutput", 
      "name": "t17_sm", 
      "inputs": [[864, 0, 0], [865, 0, 0]]
    }, 
    {
      "op": "null", 
      "name": "data/18", 
      "inputs": []
    }, 
    {
      "op": "Embedding", 
      "name": "t18_embed", 
      "attrs": {
        "input_dim": "3043", 
        "output_dim": "256"
      }, 
      "inputs": [[867, 0, 0], [1, 0, 0]]
    }, 
    {
      "op": "FullyConnected", 
      "name": "t18_l0_i2h", 
      "attrs": {"num_hidden": "2048"}, 
      "inputs": [[868, 0, 0], [3, 0, 0], [4, 0, 0]]
    }, 
    {
      "op": "FullyConnected", 
      "name": "t18_l0_h2h", 
      "attrs": {"num_hidden": "2048"}, 
      "inputs": [[834, 0, 0], [7, 0, 0], [8, 0, 0]]
    }, 
    {
      "op": "elemwise_add", 
      "name": "_plus108", 
      "inputs": [[869, 0, 0], [870, 0, 0]]
    }, 
    {
      "op": "SliceChannel", 
      "name": "t18_l0_slice", 
      "attrs": {"num_outputs": "4"}, 
      "inputs": [[871, 0, 0]]
    }, 
    {
      "op": "Activation", 
      "name": "activation273", 
      "attrs": {"act_type": "sigmoid"}, 
      "inputs": [[872, 3, 0]]
    }, 
    {
      "op": "Activation", 
      "name": "activation272", 
      "attrs": {"act_type": "sigmoid"}, 
      "inputs": [[872, 2, 0]]
    }, 
    {
      "op": "elemwise_mul", 
      "name": "_mul162", 
      "inputs": [[874, 0, 0], [832, 0, 0]]
    }, 
    {
      "op": "Activation", 
      "name": "activation270", 
      "attrs": {"act_type": "sigmoid"}, 
      "inputs": [[872, 0, 0]]
    }, 
    {
      "op": "Activation", 
      "name": "activation271", 
      "attrs": {"act_type": "tanh"}, 
      "inputs": [[872, 1, 0]]
    }, 
    {
      "op": "elemwise_mul", 
      "name": "_mul163", 
      "inputs": [[876, 0, 0], [877, 0, 0]]
    }, 
    {
      "op": "elemwise_add", 
      "name": "_plus109", 
      "inputs": [[875, 0, 0], [878, 0, 0]]
    }, 
    {
      "op": "Activation", 
      "name": "activation274", 
      "attrs": {"act_type": "tanh"}, 
      "inputs": [[879, 0, 0]]
    }, 
    {
      "op": "elemwise_mul", 
      "name": "_mul164", 
      "inputs": [[873, 0, 0], [880, 0, 0]]
    }, 
    {
      "op": "Dropout", 
      "name": "dropout54", 
      "attrs": {"p": "0.2"}, 
      "inputs": [[881, 0, 0]]
    }, 
    {
      "op": "FullyConnected", 
      "name": "t18_l1_i2h", 
      "attrs": {"num_hidden": "2048"}, 
      "inputs": [[882, 0, 0], [23, 0, 0], [24, 0, 0]]
    }, 
    {
      "op": "FullyConnected", 
      "name": "t18_l1_h2h", 
      "attrs": {"num_hidden": "2048"}, 
      "inputs": [[848, 0, 0], [27, 0, 0], [28, 0, 0]]
    }, 
    {
      "op": "elemwise_add", 
      "name": "_plus110", 
      "inputs": [[883, 0, 0], [884, 0, 0]]
    }, 
    {
      "op": "SliceChannel", 
      "name": "t18_l1_slice", 
      "attrs": {"num_outputs": "4"}, 
      "inputs": [[885, 0, 0]]
    }, 
    {
      "op": "Activation", 
      "name": "activation278", 
      "attrs": {"act_type": "sigmoid"}, 
      "inputs": [[886, 3, 0]]
    }, 
    {
      "op": "Activation", 
      "name": "activation277", 
      "attrs": {"act_type": "sigmoid"}, 
      "inputs": [[886, 2, 0]]
    }, 
    {
      "op": "elemwise_mul", 
      "name": "_mul165", 
      "inputs": [[888, 0, 0], [846, 0, 0]]
    }, 
    {
      "op": "Activation", 
      "name": "activation275", 
      "attrs": {"act_type": "sigmoid"}, 
      "inputs": [[886, 0, 0]]
    }, 
    {
      "op": "Activation", 
      "name": "activation276", 
      "attrs": {"act_type": "tanh"}, 
      "inputs": [[886, 1, 0]]
    }, 
    {
      "op": "elemwise_mul", 
      "name": "_mul166", 
      "inputs": [[890, 0, 0], [891, 0, 0]]
    }, 
    {
      "op": "elemwise_add", 
      "name": "_plus111", 
      "inputs": [[889, 0, 0], [892, 0, 0]]
    }, 
    {
      "op": "Activation", 
      "name": "activation279", 
      "attrs": {"act_type": "tanh"}, 
      "inputs": [[893, 0, 0]]
    }, 
    {
      "op": "elemwise_mul", 
      "name": "_mul167", 
      "inputs": [[887, 0, 0], [894, 0, 0]]
    }, 
    {
      "op": "Dropout", 
      "name": "dropout55", 
      "attrs": {"p": "0.2"}, 
      "inputs": [[895, 0, 0]]
    }, 
    {
      "op": "FullyConnected", 
      "name": "t18_l2_i2h", 
      "attrs": {"num_hidden": "2048"}, 
      "inputs": [[896, 0, 0], [43, 0, 0], [44, 0, 0]]
    }, 
    {
      "op": "FullyConnected", 
      "name": "t18_l2_h2h", 
      "attrs": {"num_hidden": "2048"}, 
      "inputs": [[862, 0, 0], [47, 0, 0], [48, 0, 0]]
    }, 
    {
      "op": "elemwise_add", 
      "name": "_plus112", 
      "inputs": [[897, 0, 0], [898, 0, 0]]
    }, 
    {
      "op": "SliceChannel", 
      "name": "t18_l2_slice", 
      "attrs": {"num_outputs": "4"}, 
      "inputs": [[899, 0, 0]]
    }, 
    {
      "op": "Activation", 
      "name": "activation283", 
      "attrs": {"act_type": "sigmoid"}, 
      "inputs": [[900, 3, 0]]
    }, 
    {
      "op": "Activation", 
      "name": "activation282", 
      "attrs": {"act_type": "sigmoid"}, 
      "inputs": [[900, 2, 0]]
    }, 
    {
      "op": "elemwise_mul", 
      "name": "_mul168", 
      "inputs": [[902, 0, 0], [860, 0, 0]]
    }, 
    {
      "op": "Activation", 
      "name": "activation280", 
      "attrs": {"act_type": "sigmoid"}, 
      "inputs": [[900, 0, 0]]
    }, 
    {
      "op": "Activation", 
      "name": "activation281", 
      "attrs": {"act_type": "tanh"}, 
      "inputs": [[900, 1, 0]]
    }, 
    {
      "op": "elemwise_mul", 
      "name": "_mul169", 
      "inputs": [[904, 0, 0], [905, 0, 0]]
    }, 
    {
      "op": "elemwise_add", 
      "name": "_plus113", 
      "inputs": [[903, 0, 0], [906, 0, 0]]
    }, 
    {
      "op": "Activation", 
      "name": "activation284", 
      "attrs": {"act_type": "tanh"}, 
      "inputs": [[907, 0, 0]]
    }, 
    {
      "op": "elemwise_mul", 
      "name": "_mul170", 
      "inputs": [[901, 0, 0], [908, 0, 0]]
    }, 
    {
      "op": "Dropout", 
      "name": "dropout56", 
      "attrs": {"p": "0.2"}, 
      "inputs": [[909, 0, 0]]
    }, 
    {
      "op": "FullyConnected", 
      "name": "fullyconnected18", 
      "attrs": {"num_hidden": "3043"}, 
      "inputs": [[910, 0, 0], [63, 0, 0], [64, 0, 0]]
    }, 
    {
      "op": "null", 
      "name": "label/18", 
      "inputs": []
    }, 
    {
      "op": "SoftmaxOutput", 
      "name": "t18_sm", 
      "inputs": [[911, 0, 0], [912, 0, 0]]
    }, 
    {
      "op": "null", 
      "name": "data/19", 
      "inputs": []
    }, 
    {
      "op": "Embedding", 
      "name": "t19_embed", 
      "attrs": {
        "input_dim": "3043", 
        "output_dim": "256"
      }, 
      "inputs": [[914, 0, 0], [1, 0, 0]]
    }, 
    {
      "op": "FullyConnected", 
      "name": "t19_l0_i2h", 
      "attrs": {"num_hidden": "2048"}, 
      "inputs": [[915, 0, 0], [3, 0, 0], [4, 0, 0]]
    }, 
    {
      "op": "FullyConnected", 
      "name": "t19_l0_h2h", 
      "attrs": {"num_hidden": "2048"}, 
      "inputs": [[881, 0, 0], [7, 0, 0], [8, 0, 0]]
    }, 
    {
      "op": "elemwise_add", 
      "name": "_plus114", 
      "inputs": [[916, 0, 0], [917, 0, 0]]
    }, 
    {
      "op": "SliceChannel", 
      "name": "t19_l0_slice", 
      "attrs": {"num_outputs": "4"}, 
      "inputs": [[918, 0, 0]]
    }, 
    {
      "op": "Activation", 
      "name": "activation288", 
      "attrs": {"act_type": "sigmoid"}, 
      "inputs": [[919, 3, 0]]
    }, 
    {
      "op": "Activation", 
      "name": "activation287", 
      "attrs": {"act_type": "sigmoid"}, 
      "inputs": [[919, 2, 0]]
    }, 
    {
      "op": "elemwise_mul", 
      "name": "_mul171", 
      "inputs": [[921, 0, 0], [879, 0, 0]]
    }, 
    {
      "op": "Activation", 
      "name": "activation285", 
      "attrs": {"act_type": "sigmoid"}, 
      "inputs": [[919, 0, 0]]
    }, 
    {
      "op": "Activation", 
      "name": "activation286", 
      "attrs": {"act_type": "tanh"}, 
      "inputs": [[919, 1, 0]]
    }, 
    {
      "op": "elemwise_mul", 
      "name": "_mul172", 
      "inputs": [[923, 0, 0], [924, 0, 0]]
    }, 
    {
      "op": "elemwise_add", 
      "name": "_plus115", 
      "inputs": [[922, 0, 0], [925, 0, 0]]
    }, 
    {
      "op": "Activation", 
      "name": "activation289", 
      "attrs": {"act_type": "tanh"}, 
      "inputs": [[926, 0, 0]]
    }, 
    {
      "op": "elemwise_mul", 
      "name": "_mul173", 
      "inputs": [[920, 0, 0], [927, 0, 0]]
    }, 
    {
      "op": "Dropout", 
      "name": "dropout57", 
      "attrs": {"p": "0.2"}, 
      "inputs": [[928, 0, 0]]
    }, 
    {
      "op": "FullyConnected", 
      "name": "t19_l1_i2h", 
      "attrs": {"num_hidden": "2048"}, 
      "inputs": [[929, 0, 0], [23, 0, 0], [24, 0, 0]]
    }, 
    {
      "op": "FullyConnected", 
      "name": "t19_l1_h2h", 
      "attrs": {"num_hidden": "2048"}, 
      "inputs": [[895, 0, 0], [27, 0, 0], [28, 0, 0]]
    }, 
    {
      "op": "elemwise_add", 
      "name": "_plus116", 
      "inputs": [[930, 0, 0], [931, 0, 0]]
    }, 
    {
      "op": "SliceChannel", 
      "name": "t19_l1_slice", 
      "attrs": {"num_outputs": "4"}, 
      "inputs": [[932, 0, 0]]
    }, 
    {
      "op": "Activation", 
      "name": "activation293", 
      "attrs": {"act_type": "sigmoid"}, 
      "inputs": [[933, 3, 0]]
    }, 
    {
      "op": "Activation", 
      "name": "activation292", 
      "attrs": {"act_type": "sigmoid"}, 
      "inputs": [[933, 2, 0]]
    }, 
    {
      "op": "elemwise_mul", 
      "name": "_mul174", 
      "inputs": [[935, 0, 0], [893, 0, 0]]
    }, 
    {
      "op": "Activation", 
      "name": "activation290", 
      "attrs": {"act_type": "sigmoid"}, 
      "inputs": [[933, 0, 0]]
    }, 
    {
      "op": "Activation", 
      "name": "activation291", 
      "attrs": {"act_type": "tanh"}, 
      "inputs": [[933, 1, 0]]
    }, 
    {
      "op": "elemwise_mul", 
      "name": "_mul175", 
      "inputs": [[937, 0, 0], [938, 0, 0]]
    }, 
    {
      "op": "elemwise_add", 
      "name": "_plus117", 
      "inputs": [[936, 0, 0], [939, 0, 0]]
    }, 
    {
      "op": "Activation", 
      "name": "activation294", 
      "attrs": {"act_type": "tanh"}, 
      "inputs": [[940, 0, 0]]
    }, 
    {
      "op": "elemwise_mul", 
      "name": "_mul176", 
      "inputs": [[934, 0, 0], [941, 0, 0]]
    }, 
    {
      "op": "Dropout", 
      "name": "dropout58", 
      "attrs": {"p": "0.2"}, 
      "inputs": [[942, 0, 0]]
    }, 
    {
      "op": "FullyConnected", 
      "name": "t19_l2_i2h", 
      "attrs": {"num_hidden": "2048"}, 
      "inputs": [[943, 0, 0], [43, 0, 0], [44, 0, 0]]
    }, 
    {
      "op": "FullyConnected", 
      "name": "t19_l2_h2h", 
      "attrs": {"num_hidden": "2048"}, 
      "inputs": [[909, 0, 0], [47, 0, 0], [48, 0, 0]]
    }, 
    {
      "op": "elemwise_add", 
      "name": "_plus118", 
      "inputs": [[944, 0, 0], [945, 0, 0]]
    }, 
    {
      "op": "SliceChannel", 
      "name": "t19_l2_slice", 
      "attrs": {"num_outputs": "4"}, 
      "inputs": [[946, 0, 0]]
    }, 
    {
      "op": "Activation", 
      "name": "activation298", 
      "attrs": {"act_type": "sigmoid"}, 
      "inputs": [[947, 3, 0]]
    }, 
    {
      "op": "Activation", 
      "name": "activation297", 
      "attrs": {"act_type": "sigmoid"}, 
      "inputs": [[947, 2, 0]]
    }, 
    {
      "op": "elemwise_mul", 
      "name": "_mul177", 
      "inputs": [[949, 0, 0], [907, 0, 0]]
    }, 
    {
      "op": "Activation", 
      "name": "activation295", 
      "attrs": {"act_type": "sigmoid"}, 
      "inputs": [[947, 0, 0]]
    }, 
    {
      "op": "Activation", 
      "name": "activation296", 
      "attrs": {"act_type": "tanh"}, 
      "inputs": [[947, 1, 0]]
    }, 
    {
      "op": "elemwise_mul", 
      "name": "_mul178", 
      "inputs": [[951, 0, 0], [952, 0, 0]]
    }, 
    {
      "op": "elemwise_add", 
      "name": "_plus119", 
      "inputs": [[950, 0, 0], [953, 0, 0]]
    }, 
    {
      "op": "Activation", 
      "name": "activation299", 
      "attrs": {"act_type": "tanh"}, 
      "inputs": [[954, 0, 0]]
    }, 
    {
      "op": "elemwise_mul", 
      "name": "_mul179", 
      "inputs": [[948, 0, 0], [955, 0, 0]]
    }, 
    {
      "op": "Dropout", 
      "name": "dropout59", 
      "attrs": {"p": "0.2"}, 
      "inputs": [[956, 0, 0]]
    }, 
    {
      "op": "FullyConnected", 
      "name": "fullyconnected19", 
      "attrs": {"num_hidden": "3043"}, 
      "inputs": [[957, 0, 0], [63, 0, 0], [64, 0, 0]]
    }, 
    {
      "op": "null", 
      "name": "label/19", 
      "inputs": []
    }, 
    {
      "op": "SoftmaxOutput", 
      "name": "t19_sm", 
      "inputs": [[958, 0, 0], [959, 0, 0]]
    }, 
    {
      "op": "null", 
      "name": "data/20", 
      "inputs": []
    }, 
    {
      "op": "Embedding", 
      "name": "t20_embed", 
      "attrs": {
        "input_dim": "3043", 
        "output_dim": "256"
      }, 
      "inputs": [[961, 0, 0], [1, 0, 0]]
    }, 
    {
      "op": "FullyConnected", 
      "name": "t20_l0_i2h", 
      "attrs": {"num_hidden": "2048"}, 
      "inputs": [[962, 0, 0], [3, 0, 0], [4, 0, 0]]
    }, 
    {
      "op": "FullyConnected", 
      "name": "t20_l0_h2h", 
      "attrs": {"num_hidden": "2048"}, 
      "inputs": [[928, 0, 0], [7, 0, 0], [8, 0, 0]]
    }, 
    {
      "op": "elemwise_add", 
      "name": "_plus120", 
      "inputs": [[963, 0, 0], [964, 0, 0]]
    }, 
    {
      "op": "SliceChannel", 
      "name": "t20_l0_slice", 
      "attrs": {"num_outputs": "4"}, 
      "inputs": [[965, 0, 0]]
    }, 
    {
      "op": "Activation", 
      "name": "activation303", 
      "attrs": {"act_type": "sigmoid"}, 
      "inputs": [[966, 3, 0]]
    }, 
    {
      "op": "Activation", 
      "name": "activation302", 
      "attrs": {"act_type": "sigmoid"}, 
      "inputs": [[966, 2, 0]]
    }, 
    {
      "op": "elemwise_mul", 
      "name": "_mul180", 
      "inputs": [[968, 0, 0], [926, 0, 0]]
    }, 
    {
      "op": "Activation", 
      "name": "activation300", 
      "attrs": {"act_type": "sigmoid"}, 
      "inputs": [[966, 0, 0]]
    }, 
    {
      "op": "Activation", 
      "name": "activation301", 
      "attrs": {"act_type": "tanh"}, 
      "inputs": [[966, 1, 0]]
    }, 
    {
      "op": "elemwise_mul", 
      "name": "_mul181", 
      "inputs": [[970, 0, 0], [971, 0, 0]]
    }, 
    {
      "op": "elemwise_add", 
      "name": "_plus121", 
      "inputs": [[969, 0, 0], [972, 0, 0]]
    }, 
    {
      "op": "Activation", 
      "name": "activation304", 
      "attrs": {"act_type": "tanh"}, 
      "inputs": [[973, 0, 0]]
    }, 
    {
      "op": "elemwise_mul", 
      "name": "_mul182", 
      "inputs": [[967, 0, 0], [974, 0, 0]]
    }, 
    {
      "op": "Dropout", 
      "name": "dropout60", 
      "attrs": {"p": "0.2"}, 
      "inputs": [[975, 0, 0]]
    }, 
    {
      "op": "FullyConnected", 
      "name": "t20_l1_i2h", 
      "attrs": {"num_hidden": "2048"}, 
      "inputs": [[976, 0, 0], [23, 0, 0], [24, 0, 0]]
    }, 
    {
      "op": "FullyConnected", 
      "name": "t20_l1_h2h", 
      "attrs": {"num_hidden": "2048"}, 
      "inputs": [[942, 0, 0], [27, 0, 0], [28, 0, 0]]
    }, 
    {
      "op": "elemwise_add", 
      "name": "_plus122", 
      "inputs": [[977, 0, 0], [978, 0, 0]]
    }, 
    {
      "op": "SliceChannel", 
      "name": "t20_l1_slice", 
      "attrs": {"num_outputs": "4"}, 
      "inputs": [[979, 0, 0]]
    }, 
    {
      "op": "Activation", 
      "name": "activation308", 
      "attrs": {"act_type": "sigmoid"}, 
      "inputs": [[980, 3, 0]]
    }, 
    {
      "op": "Activation", 
      "name": "activation307", 
      "attrs": {"act_type": "sigmoid"}, 
      "inputs": [[980, 2, 0]]
    }, 
    {
      "op": "elemwise_mul", 
      "name": "_mul183", 
      "inputs": [[982, 0, 0], [940, 0, 0]]
    }, 
    {
      "op": "Activation", 
      "name": "activation305", 
      "attrs": {"act_type": "sigmoid"}, 
      "inputs": [[980, 0, 0]]
    }, 
    {
      "op": "Activation", 
      "name": "activation306", 
      "attrs": {"act_type": "tanh"}, 
      "inputs": [[980, 1, 0]]
    }, 
    {
      "op": "elemwise_mul", 
      "name": "_mul184", 
      "inputs": [[984, 0, 0], [985, 0, 0]]
    }, 
    {
      "op": "elemwise_add", 
      "name": "_plus123", 
      "inputs": [[983, 0, 0], [986, 0, 0]]
    }, 
    {
      "op": "Activation", 
      "name": "activation309", 
      "attrs": {"act_type": "tanh"}, 
      "inputs": [[987, 0, 0]]
    }, 
    {
      "op": "elemwise_mul", 
      "name": "_mul185", 
      "inputs": [[981, 0, 0], [988, 0, 0]]
    }, 
    {
      "op": "Dropout", 
      "name": "dropout61", 
      "attrs": {"p": "0.2"}, 
      "inputs": [[989, 0, 0]]
    }, 
    {
      "op": "FullyConnected", 
      "name": "t20_l2_i2h", 
      "attrs": {"num_hidden": "2048"}, 
      "inputs": [[990, 0, 0], [43, 0, 0], [44, 0, 0]]
    }, 
    {
      "op": "FullyConnected", 
      "name": "t20_l2_h2h", 
      "attrs": {"num_hidden": "2048"}, 
      "inputs": [[956, 0, 0], [47, 0, 0], [48, 0, 0]]
    }, 
    {
      "op": "elemwise_add", 
      "name": "_plus124", 
      "inputs": [[991, 0, 0], [992, 0, 0]]
    }, 
    {
      "op": "SliceChannel", 
      "name": "t20_l2_slice", 
      "attrs": {"num_outputs": "4"}, 
      "inputs": [[993, 0, 0]]
    }, 
    {
      "op": "Activation", 
      "name": "activation313", 
      "attrs": {"act_type": "sigmoid"}, 
      "inputs": [[994, 3, 0]]
    }, 
    {
      "op": "Activation", 
      "name": "activation312", 
      "attrs": {"act_type": "sigmoid"}, 
      "inputs": [[994, 2, 0]]
    }, 
    {
      "op": "elemwise_mul", 
      "name": "_mul186", 
      "inputs": [[996, 0, 0], [954, 0, 0]]
    }, 
    {
      "op": "Activation", 
      "name": "activation310", 
      "attrs": {"act_type": "sigmoid"}, 
      "inputs": [[994, 0, 0]]
    }, 
    {
      "op": "Activation", 
      "name": "activation311", 
      "attrs": {"act_type": "tanh"}, 
      "inputs": [[994, 1, 0]]
    }, 
    {
      "op": "elemwise_mul", 
      "name": "_mul187", 
      "inputs": [[998, 0, 0], [999, 0, 0]]
    }, 
    {
      "op": "elemwise_add", 
      "name": "_plus125", 
      "inputs": [[997, 0, 0], [1000, 0, 0]]
    }, 
    {
      "op": "Activation", 
      "name": "activation314", 
      "attrs": {"act_type": "tanh"}, 
      "inputs": [[1001, 0, 0]]
    }, 
    {
      "op": "elemwise_mul", 
      "name": "_mul188", 
      "inputs": [[995, 0, 0], [1002, 0, 0]]
    }, 
    {
      "op": "Dropout", 
      "name": "dropout62", 
      "attrs": {"p": "0.2"}, 
      "inputs": [[1003, 0, 0]]
    }, 
    {
      "op": "FullyConnected", 
      "name": "fullyconnected20", 
      "attrs": {"num_hidden": "3043"}, 
      "inputs": [[1004, 0, 0], [63, 0, 0], [64, 0, 0]]
    }, 
    {
      "op": "null", 
      "name": "label/20", 
      "inputs": []
    }, 
    {
      "op": "SoftmaxOutput", 
      "name": "t20_sm", 
      "inputs": [[1005, 0, 0], [1006, 0, 0]]
    }, 
    {
      "op": "null", 
      "name": "data/21", 
      "inputs": []
    }, 
    {
      "op": "Embedding", 
      "name": "t21_embed", 
      "attrs": {
        "input_dim": "3043", 
        "output_dim": "256"
      }, 
      "inputs": [[1008, 0, 0], [1, 0, 0]]
    }, 
    {
      "op": "FullyConnected", 
      "name": "t21_l0_i2h", 
      "attrs": {"num_hidden": "2048"}, 
      "inputs": [[1009, 0, 0], [3, 0, 0], [4, 0, 0]]
    }, 
    {
      "op": "FullyConnected", 
      "name": "t21_l0_h2h", 
      "attrs": {"num_hidden": "2048"}, 
      "inputs": [[975, 0, 0], [7, 0, 0], [8, 0, 0]]
    }, 
    {
      "op": "elemwise_add", 
      "name": "_plus126", 
      "inputs": [[1010, 0, 0], [1011, 0, 0]]
    }, 
    {
      "op": "SliceChannel", 
      "name": "t21_l0_slice", 
      "attrs": {"num_outputs": "4"}, 
      "inputs": [[1012, 0, 0]]
    }, 
    {
      "op": "Activation", 
      "name": "activation318", 
      "attrs": {"act_type": "sigmoid"}, 
      "inputs": [[1013, 3, 0]]
    }, 
    {
      "op": "Activation", 
      "name": "activation317", 
      "attrs": {"act_type": "sigmoid"}, 
      "inputs": [[1013, 2, 0]]
    }, 
    {
      "op": "elemwise_mul", 
      "name": "_mul189", 
      "inputs": [[1015, 0, 0], [973, 0, 0]]
    }, 
    {
      "op": "Activation", 
      "name": "activation315", 
      "attrs": {"act_type": "sigmoid"}, 
      "inputs": [[1013, 0, 0]]
    }, 
    {
      "op": "Activation", 
      "name": "activation316", 
      "attrs": {"act_type": "tanh"}, 
      "inputs": [[1013, 1, 0]]
    }, 
    {
      "op": "elemwise_mul", 
      "name": "_mul190", 
      "inputs": [[1017, 0, 0], [1018, 0, 0]]
    }, 
    {
      "op": "elemwise_add", 
      "name": "_plus127", 
      "inputs": [[1016, 0, 0], [1019, 0, 0]]
    }, 
    {
      "op": "Activation", 
      "name": "activation319", 
      "attrs": {"act_type": "tanh"}, 
      "inputs": [[1020, 0, 0]]
    }, 
    {
      "op": "elemwise_mul", 
      "name": "_mul191", 
      "inputs": [[1014, 0, 0], [1021, 0, 0]]
    }, 
    {
      "op": "Dropout", 
      "name": "dropout63", 
      "attrs": {"p": "0.2"}, 
      "inputs": [[1022, 0, 0]]
    }, 
    {
      "op": "FullyConnected", 
      "name": "t21_l1_i2h", 
      "attrs": {"num_hidden": "2048"}, 
      "inputs": [[1023, 0, 0], [23, 0, 0], [24, 0, 0]]
    }, 
    {
      "op": "FullyConnected", 
      "name": "t21_l1_h2h", 
      "attrs": {"num_hidden": "2048"}, 
      "inputs": [[989, 0, 0], [27, 0, 0], [28, 0, 0]]
    }, 
    {
      "op": "elemwise_add", 
      "name": "_plus128", 
      "inputs": [[1024, 0, 0], [1025, 0, 0]]
    }, 
    {
      "op": "SliceChannel", 
      "name": "t21_l1_slice", 
      "attrs": {"num_outputs": "4"}, 
      "inputs": [[1026, 0, 0]]
    }, 
    {
      "op": "Activation", 
      "name": "activation323", 
      "attrs": {"act_type": "sigmoid"}, 
      "inputs": [[1027, 3, 0]]
    }, 
    {
      "op": "Activation", 
      "name": "activation322", 
      "attrs": {"act_type": "sigmoid"}, 
      "inputs": [[1027, 2, 0]]
    }, 
    {
      "op": "elemwise_mul", 
      "name": "_mul192", 
      "inputs": [[1029, 0, 0], [987, 0, 0]]
    }, 
    {
      "op": "Activation", 
      "name": "activation320", 
      "attrs": {"act_type": "sigmoid"}, 
      "inputs": [[1027, 0, 0]]
    }, 
    {
      "op": "Activation", 
      "name": "activation321", 
      "attrs": {"act_type": "tanh"}, 
      "inputs": [[1027, 1, 0]]
    }, 
    {
      "op": "elemwise_mul", 
      "name": "_mul193", 
      "inputs": [[1031, 0, 0], [1032, 0, 0]]
    }, 
    {
      "op": "elemwise_add", 
      "name": "_plus129", 
      "inputs": [[1030, 0, 0], [1033, 0, 0]]
    }, 
    {
      "op": "Activation", 
      "name": "activation324", 
      "attrs": {"act_type": "tanh"}, 
      "inputs": [[1034, 0, 0]]
    }, 
    {
      "op": "elemwise_mul", 
      "name": "_mul194", 
      "inputs": [[1028, 0, 0], [1035, 0, 0]]
    }, 
    {
      "op": "Dropout", 
      "name": "dropout64", 
      "attrs": {"p": "0.2"}, 
      "inputs": [[1036, 0, 0]]
    }, 
    {
      "op": "FullyConnected", 
      "name": "t21_l2_i2h", 
      "attrs": {"num_hidden": "2048"}, 
      "inputs": [[1037, 0, 0], [43, 0, 0], [44, 0, 0]]
    }, 
    {
      "op": "FullyConnected", 
      "name": "t21_l2_h2h", 
      "attrs": {"num_hidden": "2048"}, 
      "inputs": [[1003, 0, 0], [47, 0, 0], [48, 0, 0]]
    }, 
    {
      "op": "elemwise_add", 
      "name": "_plus130", 
      "inputs": [[1038, 0, 0], [1039, 0, 0]]
    }, 
    {
      "op": "SliceChannel", 
      "name": "t21_l2_slice", 
      "attrs": {"num_outputs": "4"}, 
      "inputs": [[1040, 0, 0]]
    }, 
    {
      "op": "Activation", 
      "name": "activation328", 
      "attrs": {"act_type": "sigmoid"}, 
      "inputs": [[1041, 3, 0]]
    }, 
    {
      "op": "Activation", 
      "name": "activation327", 
      "attrs": {"act_type": "sigmoid"}, 
      "inputs": [[1041, 2, 0]]
    }, 
    {
      "op": "elemwise_mul", 
      "name": "_mul195", 
      "inputs": [[1043, 0, 0], [1001, 0, 0]]
    }, 
    {
      "op": "Activation", 
      "name": "activation325", 
      "attrs": {"act_type": "sigmoid"}, 
      "inputs": [[1041, 0, 0]]
    }, 
    {
      "op": "Activation", 
      "name": "activation326", 
      "attrs": {"act_type": "tanh"}, 
      "inputs": [[1041, 1, 0]]
    }, 
    {
      "op": "elemwise_mul", 
      "name": "_mul196", 
      "inputs": [[1045, 0, 0], [1046, 0, 0]]
    }, 
    {
      "op": "elemwise_add", 
      "name": "_plus131", 
      "inputs": [[1044, 0, 0], [1047, 0, 0]]
    }, 
    {
      "op": "Activation", 
      "name": "activation329", 
      "attrs": {"act_type": "tanh"}, 
      "inputs": [[1048, 0, 0]]
    }, 
    {
      "op": "elemwise_mul", 
      "name": "_mul197", 
      "inputs": [[1042, 0, 0], [1049, 0, 0]]
    }, 
    {
      "op": "Dropout", 
      "name": "dropout65", 
      "attrs": {"p": "0.2"}, 
      "inputs": [[1050, 0, 0]]
    }, 
    {
      "op": "FullyConnected", 
      "name": "fullyconnected21", 
      "attrs": {"num_hidden": "3043"}, 
      "inputs": [[1051, 0, 0], [63, 0, 0], [64, 0, 0]]
    }, 
    {
      "op": "null", 
      "name": "label/21", 
      "inputs": []
    }, 
    {
      "op": "SoftmaxOutput", 
      "name": "t21_sm", 
      "inputs": [[1052, 0, 0], [1053, 0, 0]]
    }, 
    {
      "op": "null", 
      "name": "data/22", 
      "inputs": []
    }, 
    {
      "op": "Embedding", 
      "name": "t22_embed", 
      "attrs": {
        "input_dim": "3043", 
        "output_dim": "256"
      }, 
      "inputs": [[1055, 0, 0], [1, 0, 0]]
    }, 
    {
      "op": "FullyConnected", 
      "name": "t22_l0_i2h", 
      "attrs": {"num_hidden": "2048"}, 
      "inputs": [[1056, 0, 0], [3, 0, 0], [4, 0, 0]]
    }, 
    {
      "op": "FullyConnected", 
      "name": "t22_l0_h2h", 
      "attrs": {"num_hidden": "2048"}, 
      "inputs": [[1022, 0, 0], [7, 0, 0], [8, 0, 0]]
    }, 
    {
      "op": "elemwise_add", 
      "name": "_plus132", 
      "inputs": [[1057, 0, 0], [1058, 0, 0]]
    }, 
    {
      "op": "SliceChannel", 
      "name": "t22_l0_slice", 
      "attrs": {"num_outputs": "4"}, 
      "inputs": [[1059, 0, 0]]
    }, 
    {
      "op": "Activation", 
      "name": "activation333", 
      "attrs": {"act_type": "sigmoid"}, 
      "inputs": [[1060, 3, 0]]
    }, 
    {
      "op": "Activation", 
      "name": "activation332", 
      "attrs": {"act_type": "sigmoid"}, 
      "inputs": [[1060, 2, 0]]
    }, 
    {
      "op": "elemwise_mul", 
      "name": "_mul198", 
      "inputs": [[1062, 0, 0], [1020, 0, 0]]
    }, 
    {
      "op": "Activation", 
      "name": "activation330", 
      "attrs": {"act_type": "sigmoid"}, 
      "inputs": [[1060, 0, 0]]
    }, 
    {
      "op": "Activation", 
      "name": "activation331", 
      "attrs": {"act_type": "tanh"}, 
      "inputs": [[1060, 1, 0]]
    }, 
    {
      "op": "elemwise_mul", 
      "name": "_mul199", 
      "inputs": [[1064, 0, 0], [1065, 0, 0]]
    }, 
    {
      "op": "elemwise_add", 
      "name": "_plus133", 
      "inputs": [[1063, 0, 0], [1066, 0, 0]]
    }, 
    {
      "op": "Activation", 
      "name": "activation334", 
      "attrs": {"act_type": "tanh"}, 
      "inputs": [[1067, 0, 0]]
    }, 
    {
      "op": "elemwise_mul", 
      "name": "_mul200", 
      "inputs": [[1061, 0, 0], [1068, 0, 0]]
    }, 
    {
      "op": "Dropout", 
      "name": "dropout66", 
      "attrs": {"p": "0.2"}, 
      "inputs": [[1069, 0, 0]]
    }, 
    {
      "op": "FullyConnected", 
      "name": "t22_l1_i2h", 
      "attrs": {"num_hidden": "2048"}, 
      "inputs": [[1070, 0, 0], [23, 0, 0], [24, 0, 0]]
    }, 
    {
      "op": "FullyConnected", 
      "name": "t22_l1_h2h", 
      "attrs": {"num_hidden": "2048"}, 
      "inputs": [[1036, 0, 0], [27, 0, 0], [28, 0, 0]]
    }, 
    {
      "op": "elemwise_add", 
      "name": "_plus134", 
      "inputs": [[1071, 0, 0], [1072, 0, 0]]
    }, 
    {
      "op": "SliceChannel", 
      "name": "t22_l1_slice", 
      "attrs": {"num_outputs": "4"}, 
      "inputs": [[1073, 0, 0]]
    }, 
    {
      "op": "Activation", 
      "name": "activation338", 
      "attrs": {"act_type": "sigmoid"}, 
      "inputs": [[1074, 3, 0]]
    }, 
    {
      "op": "Activation", 
      "name": "activation337", 
      "attrs": {"act_type": "sigmoid"}, 
      "inputs": [[1074, 2, 0]]
    }, 
    {
      "op": "elemwise_mul", 
      "name": "_mul201", 
      "inputs": [[1076, 0, 0], [1034, 0, 0]]
    }, 
    {
      "op": "Activation", 
      "name": "activation335", 
      "attrs": {"act_type": "sigmoid"}, 
      "inputs": [[1074, 0, 0]]
    }, 
    {
      "op": "Activation", 
      "name": "activation336", 
      "attrs": {"act_type": "tanh"}, 
      "inputs": [[1074, 1, 0]]
    }, 
    {
      "op": "elemwise_mul", 
      "name": "_mul202", 
      "inputs": [[1078, 0, 0], [1079, 0, 0]]
    }, 
    {
      "op": "elemwise_add", 
      "name": "_plus135", 
      "inputs": [[1077, 0, 0], [1080, 0, 0]]
    }, 
    {
      "op": "Activation", 
      "name": "activation339", 
      "attrs": {"act_type": "tanh"}, 
      "inputs": [[1081, 0, 0]]
    }, 
    {
      "op": "elemwise_mul", 
      "name": "_mul203", 
      "inputs": [[1075, 0, 0], [1082, 0, 0]]
    }, 
    {
      "op": "Dropout", 
      "name": "dropout67", 
      "attrs": {"p": "0.2"}, 
      "inputs": [[1083, 0, 0]]
    }, 
    {
      "op": "FullyConnected", 
      "name": "t22_l2_i2h", 
      "attrs": {"num_hidden": "2048"}, 
      "inputs": [[1084, 0, 0], [43, 0, 0], [44, 0, 0]]
    }, 
    {
      "op": "FullyConnected", 
      "name": "t22_l2_h2h", 
      "attrs": {"num_hidden": "2048"}, 
      "inputs": [[1050, 0, 0], [47, 0, 0], [48, 0, 0]]
    }, 
    {
      "op": "elemwise_add", 
      "name": "_plus136", 
      "inputs": [[1085, 0, 0], [1086, 0, 0]]
    }, 
    {
      "op": "SliceChannel", 
      "name": "t22_l2_slice", 
      "attrs": {"num_outputs": "4"}, 
      "inputs": [[1087, 0, 0]]
    }, 
    {
      "op": "Activation", 
      "name": "activation343", 
      "attrs": {"act_type": "sigmoid"}, 
      "inputs": [[1088, 3, 0]]
    }, 
    {
      "op": "Activation", 
      "name": "activation342", 
      "attrs": {"act_type": "sigmoid"}, 
      "inputs": [[1088, 2, 0]]
    }, 
    {
      "op": "elemwise_mul", 
      "name": "_mul204", 
      "inputs": [[1090, 0, 0], [1048, 0, 0]]
    }, 
    {
      "op": "Activation", 
      "name": "activation340", 
      "attrs": {"act_type": "sigmoid"}, 
      "inputs": [[1088, 0, 0]]
    }, 
    {
      "op": "Activation", 
      "name": "activation341", 
      "attrs": {"act_type": "tanh"}, 
      "inputs": [[1088, 1, 0]]
    }, 
    {
      "op": "elemwise_mul", 
      "name": "_mul205", 
      "inputs": [[1092, 0, 0], [1093, 0, 0]]
    }, 
    {
      "op": "elemwise_add", 
      "name": "_plus137", 
      "inputs": [[1091, 0, 0], [1094, 0, 0]]
    }, 
    {
      "op": "Activation", 
      "name": "activation344", 
      "attrs": {"act_type": "tanh"}, 
      "inputs": [[1095, 0, 0]]
    }, 
    {
      "op": "elemwise_mul", 
      "name": "_mul206", 
      "inputs": [[1089, 0, 0], [1096, 0, 0]]
    }, 
    {
      "op": "Dropout", 
      "name": "dropout68", 
      "attrs": {"p": "0.2"}, 
      "inputs": [[1097, 0, 0]]
    }, 
    {
      "op": "FullyConnected", 
      "name": "fullyconnected22", 
      "attrs": {"num_hidden": "3043"}, 
      "inputs": [[1098, 0, 0], [63, 0, 0], [64, 0, 0]]
    }, 
    {
      "op": "null", 
      "name": "label/22", 
      "inputs": []
    }, 
    {
      "op": "SoftmaxOutput", 
      "name": "t22_sm", 
      "inputs": [[1099, 0, 0], [1100, 0, 0]]
    }, 
    {
      "op": "null", 
      "name": "data/23", 
      "inputs": []
    }, 
    {
      "op": "Embedding", 
      "name": "t23_embed", 
      "attrs": {
        "input_dim": "3043", 
        "output_dim": "256"
      }, 
      "inputs": [[1102, 0, 0], [1, 0, 0]]
    }, 
    {
      "op": "FullyConnected", 
      "name": "t23_l0_i2h", 
      "attrs": {"num_hidden": "2048"}, 
      "inputs": [[1103, 0, 0], [3, 0, 0], [4, 0, 0]]
    }, 
    {
      "op": "FullyConnected", 
      "name": "t23_l0_h2h", 
      "attrs": {"num_hidden": "2048"}, 
      "inputs": [[1069, 0, 0], [7, 0, 0], [8, 0, 0]]
    }, 
    {
      "op": "elemwise_add", 
      "name": "_plus138", 
      "inputs": [[1104, 0, 0], [1105, 0, 0]]
    }, 
    {
      "op": "SliceChannel", 
      "name": "t23_l0_slice", 
      "attrs": {"num_outputs": "4"}, 
      "inputs": [[1106, 0, 0]]
    }, 
    {
      "op": "Activation", 
      "name": "activation348", 
      "attrs": {"act_type": "sigmoid"}, 
      "inputs": [[1107, 3, 0]]
    }, 
    {
      "op": "Activation", 
      "name": "activation347", 
      "attrs": {"act_type": "sigmoid"}, 
      "inputs": [[1107, 2, 0]]
    }, 
    {
      "op": "elemwise_mul", 
      "name": "_mul207", 
      "inputs": [[1109, 0, 0], [1067, 0, 0]]
    }, 
    {
      "op": "Activation", 
      "name": "activation345", 
      "attrs": {"act_type": "sigmoid"}, 
      "inputs": [[1107, 0, 0]]
    }, 
    {
      "op": "Activation", 
      "name": "activation346", 
      "attrs": {"act_type": "tanh"}, 
      "inputs": [[1107, 1, 0]]
    }, 
    {
      "op": "elemwise_mul", 
      "name": "_mul208", 
      "inputs": [[1111, 0, 0], [1112, 0, 0]]
    }, 
    {
      "op": "elemwise_add", 
      "name": "_plus139", 
      "inputs": [[1110, 0, 0], [1113, 0, 0]]
    }, 
    {
      "op": "Activation", 
      "name": "activation349", 
      "attrs": {"act_type": "tanh"}, 
      "inputs": [[1114, 0, 0]]
    }, 
    {
      "op": "elemwise_mul", 
      "name": "_mul209", 
      "inputs": [[1108, 0, 0], [1115, 0, 0]]
    }, 
    {
      "op": "Dropout", 
      "name": "dropout69", 
      "attrs": {"p": "0.2"}, 
      "inputs": [[1116, 0, 0]]
    }, 
    {
      "op": "FullyConnected", 
      "name": "t23_l1_i2h", 
      "attrs": {"num_hidden": "2048"}, 
      "inputs": [[1117, 0, 0], [23, 0, 0], [24, 0, 0]]
    }, 
    {
      "op": "FullyConnected", 
      "name": "t23_l1_h2h", 
      "attrs": {"num_hidden": "2048"}, 
      "inputs": [[1083, 0, 0], [27, 0, 0], [28, 0, 0]]
    }, 
    {
      "op": "elemwise_add", 
      "name": "_plus140", 
      "inputs": [[1118, 0, 0], [1119, 0, 0]]
    }, 
    {
      "op": "SliceChannel", 
      "name": "t23_l1_slice", 
      "attrs": {"num_outputs": "4"}, 
      "inputs": [[1120, 0, 0]]
    }, 
    {
      "op": "Activation", 
      "name": "activation353", 
      "attrs": {"act_type": "sigmoid"}, 
      "inputs": [[1121, 3, 0]]
    }, 
    {
      "op": "Activation", 
      "name": "activation352", 
      "attrs": {"act_type": "sigmoid"}, 
      "inputs": [[1121, 2, 0]]
    }, 
    {
      "op": "elemwise_mul", 
      "name": "_mul210", 
      "inputs": [[1123, 0, 0], [1081, 0, 0]]
    }, 
    {
      "op": "Activation", 
      "name": "activation350", 
      "attrs": {"act_type": "sigmoid"}, 
      "inputs": [[1121, 0, 0]]
    }, 
    {
      "op": "Activation", 
      "name": "activation351", 
      "attrs": {"act_type": "tanh"}, 
      "inputs": [[1121, 1, 0]]
    }, 
    {
      "op": "elemwise_mul", 
      "name": "_mul211", 
      "inputs": [[1125, 0, 0], [1126, 0, 0]]
    }, 
    {
      "op": "elemwise_add", 
      "name": "_plus141", 
      "inputs": [[1124, 0, 0], [1127, 0, 0]]
    }, 
    {
      "op": "Activation", 
      "name": "activation354", 
      "attrs": {"act_type": "tanh"}, 
      "inputs": [[1128, 0, 0]]
    }, 
    {
      "op": "elemwise_mul", 
      "name": "_mul212", 
      "inputs": [[1122, 0, 0], [1129, 0, 0]]
    }, 
    {
      "op": "Dropout", 
      "name": "dropout70", 
      "attrs": {"p": "0.2"}, 
      "inputs": [[1130, 0, 0]]
    }, 
    {
      "op": "FullyConnected", 
      "name": "t23_l2_i2h", 
      "attrs": {"num_hidden": "2048"}, 
      "inputs": [[1131, 0, 0], [43, 0, 0], [44, 0, 0]]
    }, 
    {
      "op": "FullyConnected", 
      "name": "t23_l2_h2h", 
…
      "name": "activation942", 
      "attrs": {"act_type": "sigmoid"}, 
      "inputs": [[2968, 2, 0]]
    }, 
    {
      "op": "elemwise_mul", 
      "name": "_mul564", 
      "inputs": [[2970, 0, 0], [2928, 0, 0]]
    }, 
    {
      "op": "Activation", 
      "name": "activation940", 
      "attrs": {"act_type": "sigmoid"}, 
      "inputs": [[2968, 0, 0]]
    }, 
    {
      "op": "Activation", 
      "name": "activation941", 
      "attrs": {"act_type": "tanh"}, 
      "inputs": [[2968, 1, 0]]
    }, 
    {
      "op": "elemwise_mul", 
      "name": "_mul565", 
      "inputs": [[2972, 0, 0], [2973, 0, 0]]
    }, 
    {
      "op": "elemwise_add", 
      "name": "_plus377", 
      "inputs": [[2971, 0, 0], [2974, 0, 0]]
    }, 
    {
      "op": "Activation", 
      "name": "activation944", 
      "attrs": {"act_type": "tanh"}, 
      "inputs": [[2975, 0, 0]]
    }, 
    {
      "op": "elemwise_mul", 
      "name": "_mul566", 
      "inputs": [[2969, 0, 0], [2976, 0, 0]]
    }, 
    {
      "op": "Dropout", 
      "name": "dropout188", 
      "attrs": {"p": "0.2"}, 
      "inputs": [[2977, 0, 0]]
    }, 
    {
      "op": "FullyConnected", 
      "name": "fullyconnected62", 
      "attrs": {"num_hidden": "3043"}, 
      "inputs": [[2978, 0, 0], [63, 0, 0], [64, 0, 0]]
    }, 
    {
      "op": "null", 
      "name": "label/62", 
      "inputs": []
    }, 
    {
      "op": "SoftmaxOutput", 
      "name": "t62_sm", 
      "inputs": [[2979, 0, 0], [2980, 0, 0]]
    }, 
    {
      "op": "null", 
      "name": "data/63", 
      "inputs": []
    }, 
    {
      "op": "Embedding", 
      "name": "t63_embed", 
      "attrs": {
        "input_dim": "3043", 
        "output_dim": "256"
      }, 
      "inputs": [[2982, 0, 0], [1, 0, 0]]
    }, 
    {
      "op": "FullyConnected", 
      "name": "t63_l0_i2h", 
      "attrs": {"num_hidden": "2048"}, 
      "inputs": [[2983, 0, 0], [3, 0, 0], [4, 0, 0]]
    }, 
    {
      "op": "FullyConnected", 
      "name": "t63_l0_h2h", 
      "attrs": {"num_hidden": "2048"}, 
      "inputs": [[2949, 0, 0], [7, 0, 0], [8, 0, 0]]
    }, 
    {
      "op": "elemwise_add", 
      "name": "_plus378", 
      "inputs": [[2984, 0, 0], [2985, 0, 0]]
    }, 
    {
      "op": "SliceChannel", 
      "name": "t63_l0_slice", 
      "attrs": {"num_outputs": "4"}, 
      "inputs": [[2986, 0, 0]]
    }, 
    {
      "op": "Activation", 
      "name": "activation948", 
      "attrs": {"act_type": "sigmoid"}, 
      "inputs": [[2987, 3, 0]]
    }, 
    {
      "op": "Activation", 
      "name": "activation947", 
      "attrs": {"act_type": "sigmoid"}, 
      "inputs": [[2987, 2, 0]]
    }, 
    {
      "op": "elemwise_mul", 
      "name": "_mul567", 
      "inputs": [[2989, 0, 0], [2947, 0, 0]]
    }, 
    {
      "op": "Activation", 
      "name": "activation945", 
      "attrs": {"act_type": "sigmoid"}, 
      "inputs": [[2987, 0, 0]]
    }, 
    {
      "op": "Activation", 
      "name": "activation946", 
      "attrs": {"act_type": "tanh"}, 
      "inputs": [[2987, 1, 0]]
    }, 
    {
      "op": "elemwise_mul", 
      "name": "_mul568", 
      "inputs": [[2991, 0, 0], [2992, 0, 0]]
    }, 
    {
      "op": "elemwise_add", 
      "name": "_plus379", 
      "inputs": [[2990, 0, 0], [2993, 0, 0]]
    }, 
    {
      "op": "Activation", 
      "name": "activation949", 
      "attrs": {"act_type": "tanh"}, 
      "inputs": [[2994, 0, 0]]
    }, 
    {
      "op": "elemwise_mul", 
      "name": "_mul569", 
      "inputs": [[2988, 0, 0], [2995, 0, 0]]
    }, 
    {
      "op": "Dropout", 
      "name": "dropout189", 
      "attrs": {"p": "0.2"}, 
      "inputs": [[2996, 0, 0]]
    }, 
    {
      "op": "FullyConnected", 
      "name": "t63_l1_i2h", 
      "attrs": {"num_hidden": "2048"}, 
      "inputs": [[2997, 0, 0], [23, 0, 0], [24, 0, 0]]
    }, 
    {
      "op": "FullyConnected", 
      "name": "t63_l1_h2h", 
      "attrs": {"num_hidden": "2048"}, 
      "inputs": [[2963, 0, 0], [27, 0, 0], [28, 0, 0]]
    }, 
    {
      "op": "elemwise_add", 
      "name": "_plus380", 
      "inputs": [[2998, 0, 0], [2999, 0, 0]]
    }, 
    {
      "op": "SliceChannel", 
      "name": "t63_l1_slice", 
      "attrs": {"num_outputs": "4"}, 
      "inputs": [[3000, 0, 0]]
    }, 
    {
      "op": "Activation", 
      "name": "activation953", 
      "attrs": {"act_type": "sigmoid"}, 
      "inputs": [[3001, 3, 0]]
    }, 
    {
      "op": "Activation", 
      "name": "activation952", 
      "attrs": {"act_type": "sigmoid"}, 
      "inputs": [[3001, 2, 0]]
    }, 
    {
      "op": "elemwise_mul", 
      "name": "_mul570", 
      "inputs": [[3003, 0, 0], [2961, 0, 0]]
    }, 
    {
      "op": "Activation", 
      "name": "activation950", 
      "attrs": {"act_type": "sigmoid"}, 
      "inputs": [[3001, 0, 0]]
    }, 
    {
      "op": "Activation", 
      "name": "activation951", 
      "attrs": {"act_type": "tanh"}, 
      "inputs": [[3001, 1, 0]]
    }, 
    {
      "op": "elemwise_mul", 
      "name": "_mul571", 
      "inputs": [[3005, 0, 0], [3006, 0, 0]]
    }, 
    {
      "op": "elemwise_add", 
      "name": "_plus381", 
      "inputs": [[3004, 0, 0], [3007, 0, 0]]
    }, 
    {
      "op": "Activation", 
      "name": "activation954", 
      "attrs": {"act_type": "tanh"}, 
      "inputs": [[3008, 0, 0]]
    }, 
    {
      "op": "elemwise_mul", 
      "name": "_mul572", 
      "inputs": [[3002, 0, 0], [3009, 0, 0]]
    }, 
    {
      "op": "Dropout", 
      "name": "dropout190", 
      "attrs": {"p": "0.2"}, 
      "inputs": [[3010, 0, 0]]
    }, 
    {
      "op": "FullyConnected", 
      "name": "t63_l2_i2h", 
      "attrs": {"num_hidden": "2048"}, 
      "inputs": [[3011, 0, 0], [43, 0, 0], [44, 0, 0]]
    }, 
    {
      "op": "FullyConnected", 
      "name": "t63_l2_h2h", 
      "attrs": {"num_hidden": "2048"}, 
      "inputs": [[2977, 0, 0], [47, 0, 0], [48, 0, 0]]
    }, 
    {
      "op": "elemwise_add", 
      "name": "_plus382", 
      "inputs": [[3012, 0, 0], [3013, 0, 0]]
    }, 
    {
      "op": "SliceChannel", 
      "name": "t63_l2_slice", 
      "attrs": {"num_outputs": "4"}, 
      "inputs": [[3014, 0, 0]]
    }, 
    {
      "op": "Activation", 
      "name": "activation958", 
      "attrs": {"act_type": "sigmoid"}, 
      "inputs": [[3015, 3, 0]]
    }, 
    {
      "op": "Activation", 
      "name": "activation957", 
      "attrs": {"act_type": "sigmoid"}, 
      "inputs": [[3015, 2, 0]]
    }, 
    {
      "op": "elemwise_mul", 
      "name": "_mul573", 
      "inputs": [[3017, 0, 0], [2975, 0, 0]]
    }, 
    {
      "op": "Activation", 
      "name": "activation955", 
      "attrs": {"act_type": "sigmoid"}, 
      "inputs": [[3015, 0, 0]]
    }, 
    {
      "op": "Activation", 
      "name": "activation956", 
      "attrs": {"act_type": "tanh"}, 
      "inputs": [[3015, 1, 0]]
    }, 
    {
      "op": "elemwise_mul", 
      "name": "_mul574", 
      "inputs": [[3019, 0, 0], [3020, 0, 0]]
    }, 
    {
      "op": "elemwise_add", 
      "name": "_plus383", 
      "inputs": [[3018, 0, 0], [3021, 0, 0]]
    }, 
    {
      "op": "Activation", 
      "name": "activation959", 
      "attrs": {"act_type": "tanh"}, 
      "inputs": [[3022, 0, 0]]
    }, 
    {
      "op": "elemwise_mul", 
      "name": "_mul575", 
      "inputs": [[3016, 0, 0], [3023, 0, 0]]
    }, 
    {
      "op": "Dropout", 
      "name": "dropout191", 
      "attrs": {"p": "0.2"}, 
      "inputs": [[3024, 0, 0]]
    }, 
    {
      "op": "FullyConnected", 
      "name": "fullyconnected63", 
      "attrs": {"num_hidden": "3043"}, 
      "inputs": [[3025, 0, 0], [63, 0, 0], [64, 0, 0]]
    }, 
    {
      "op": "null", 
      "name": "label/63", 
      "inputs": []
    }, 
    {
      "op": "SoftmaxOutput", 
      "name": "t63_sm", 
      "inputs": [[3026, 0, 0], [3027, 0, 0]]
    }, 
    {
      "op": "null", 
      "name": "data/64", 
      "inputs": []
    }, 
    {
      "op": "Embedding", 
      "name": "t64_embed", 
      "attrs": {
        "input_dim": "3043", 
        "output_dim": "256"
      }, 
      "inputs": [[3029, 0, 0], [1, 0, 0]]
    }, 
    {
      "op": "FullyConnected", 
      "name": "t64_l0_i2h", 
      "attrs": {"num_hidden": "2048"}, 
      "inputs": [[3030, 0, 0], [3, 0, 0], [4, 0, 0]]
    }, 
    {
      "op": "FullyConnected", 
      "name": "t64_l0_h2h", 
      "attrs": {"num_hidden": "2048"}, 
      "inputs": [[2996, 0, 0], [7, 0, 0], [8, 0, 0]]
    }, 
    {
      "op": "elemwise_add", 
      "name": "_plus384", 
      "inputs": [[3031, 0, 0], [3032, 0, 0]]
    }, 
    {
      "op": "SliceChannel", 
      "name": "t64_l0_slice", 
      "attrs": {"num_outputs": "4"}, 
      "inputs": [[3033, 0, 0]]
    }, 
    {
      "op": "Activation", 
      "name": "activation963", 
      "attrs": {"act_type": "sigmoid"}, 
      "inputs": [[3034, 3, 0]]
    }, 
    {
      "op": "Activation", 
      "name": "activation962", 
      "attrs": {"act_type": "sigmoid"}, 
      "inputs": [[3034, 2, 0]]
    }, 
    {
      "op": "elemwise_mul", 
      "name": "_mul576", 
      "inputs": [[3036, 0, 0], [2994, 0, 0]]
    }, 
    {
      "op": "Activation", 
      "name": "activation960", 
      "attrs": {"act_type": "sigmoid"}, 
      "inputs": [[3034, 0, 0]]
    }, 
    {
      "op": "Activation", 
      "name": "activation961", 
      "attrs": {"act_type": "tanh"}, 
      "inputs": [[3034, 1, 0]]
    }, 
    {
      "op": "elemwise_mul", 
      "name": "_mul577", 
      "inputs": [[3038, 0, 0], [3039, 0, 0]]
    }, 
    {
      "op": "elemwise_add", 
      "name": "_plus385", 
      "inputs": [[3037, 0, 0], [3040, 0, 0]]
    }, 
    {
      "op": "Activation", 
      "name": "activation964", 
      "attrs": {"act_type": "tanh"}, 
      "inputs": [[3041, 0, 0]]
    }, 
    {
      "op": "elemwise_mul", 
      "name": "_mul578", 
      "inputs": [[3035, 0, 0], [3042, 0, 0]]
    }, 
    {
      "op": "Dropout", 
      "name": "dropout192", 
      "attrs": {"p": "0.2"}, 
      "inputs": [[3043, 0, 0]]
    }, 
    {
      "op": "FullyConnected", 
      "name": "t64_l1_i2h", 
      "attrs": {"num_hidden": "2048"}, 
      "inputs": [[3044, 0, 0], [23, 0, 0], [24, 0, 0]]
    }, 
    {
      "op": "FullyConnected", 
      "name": "t64_l1_h2h", 
      "attrs": {"num_hidden": "2048"}, 
      "inputs": [[3010, 0, 0], [27, 0, 0], [28, 0, 0]]
    }, 
    {
      "op": "elemwise_add", 
      "name": "_plus386", 
      "inputs": [[3045, 0, 0], [3046, 0, 0]]
    }, 
    {
      "op": "SliceChannel", 
      "name": "t64_l1_slice", 
      "attrs": {"num_outputs": "4"}, 
      "inputs": [[3047, 0, 0]]
    }, 
    {
      "op": "Activation", 
      "name": "activation968", 
      "attrs": {"act_type": "sigmoid"}, 
      "inputs": [[3048, 3, 0]]
    }, 
    {
      "op": "Activation", 
      "name": "activation967", 
      "attrs": {"act_type": "sigmoid"}, 
      "inputs": [[3048, 2, 0]]
    }, 
    {
      "op": "elemwise_mul", 
      "name": "_mul579", 
      "inputs": [[3050, 0, 0], [3008, 0, 0]]
    }, 
    {
      "op": "Activation", 
      "name": "activation965", 
      "attrs": {"act_type": "sigmoid"}, 
      "inputs": [[3048, 0, 0]]
    }, 
    {
      "op": "Activation", 
      "name": "activation966", 
      "attrs": {"act_type": "tanh"}, 
      "inputs": [[3048, 1, 0]]
    }, 
    {
      "op": "elemwise_mul", 
      "name": "_mul580", 
      "inputs": [[3052, 0, 0], [3053, 0, 0]]
    }, 
    {
      "op": "elemwise_add", 
      "name": "_plus387", 
      "inputs": [[3051, 0, 0], [3054, 0, 0]]
    }, 
    {
      "op": "Activation", 
      "name": "activation969", 
      "attrs": {"act_type": "tanh"}, 
      "inputs": [[3055, 0, 0]]
    }, 
    {
      "op": "elemwise_mul", 
      "name": "_mul581", 
      "inputs": [[3049, 0, 0], [3056, 0, 0]]
    }, 
    {
      "op": "Dropout", 
      "name": "dropout193", 
      "attrs": {"p": "0.2"}, 
      "inputs": [[3057, 0, 0]]
    }, 
    {
      "op": "FullyConnected", 
      "name": "t64_l2_i2h", 
      "attrs": {"num_hidden": "2048"}, 
      "inputs": [[3058, 0, 0], [43, 0, 0], [44, 0, 0]]
    }, 
    {
      "op": "FullyConnected", 
      "name": "t64_l2_h2h", 
      "attrs": {"num_hidden": "2048"}, 
      "inputs": [[3024, 0, 0], [47, 0, 0], [48, 0, 0]]
    }, 
    {
      "op": "elemwise_add", 
      "name": "_plus388", 
      "inputs": [[3059, 0, 0], [3060, 0, 0]]
    }, 
    {
      "op": "SliceChannel", 
      "name": "t64_l2_slice", 
      "attrs": {"num_outputs": "4"}, 
      "inputs": [[3061, 0, 0]]
    }, 
    {
      "op": "Activation", 
      "name": "activation973", 
      "attrs": {"act_type": "sigmoid"}, 
      "inputs": [[3062, 3, 0]]
    }, 
    {
      "op": "Activation", 
      "name": "activation972", 
      "attrs": {"act_type": "sigmoid"}, 
      "inputs": [[3062, 2, 0]]
    }, 
    {
      "op": "elemwise_mul", 
      "name": "_mul582", 
      "inputs": [[3064, 0, 0], [3022, 0, 0]]
    }, 
    {
      "op": "Activation", 
      "name": "activation970", 
      "attrs": {"act_type": "sigmoid"}, 
      "inputs": [[3062, 0, 0]]
    }, 
    {
      "op": "Activation", 
      "name": "activation971", 
      "attrs": {"act_type": "tanh"}, 
      "inputs": [[3062, 1, 0]]
    }, 
    {
      "op": "elemwise_mul", 
      "name": "_mul583", 
      "inputs": [[3066, 0, 0], [3067, 0, 0]]
    }, 
    {
      "op": "elemwise_add", 
      "name": "_plus389", 
      "inputs": [[3065, 0, 0], [3068, 0, 0]]
    }, 
    {
      "op": "Activation", 
      "name": "activation974", 
      "attrs": {"act_type": "tanh"}, 
      "inputs": [[3069, 0, 0]]
    }, 
    {
      "op": "elemwise_mul", 
      "name": "_mul584", 
      "inputs": [[3063, 0, 0], [3070, 0, 0]]
    }, 
    {
      "op": "Dropout", 
      "name": "dropout194", 
      "attrs": {"p": "0.2"}, 
      "inputs": [[3071, 0, 0]]
    }, 
    {
      "op": "FullyConnected", 
      "name": "fullyconnected64", 
      "attrs": {"num_hidden": "3043"}, 
      "inputs": [[3072, 0, 0], [63, 0, 0], [64, 0, 0]]
    }, 
    {
      "op": "null", 
      "name": "label/64", 
      "inputs": []
    }, 
    {
      "op": "SoftmaxOutput", 
      "name": "t64_sm", 
      "inputs": [[3073, 0, 0], [3074, 0, 0]]
    }
  ], 
  "arg_nodes": [
    0, 
    1, 
    3, 
    4, 
    6, 
    7, 
    8, 
    14, 
    23, 
    24, 
    26, 
    27, 
    28, 
    34, 
    43, 
    44, 
    46, 
    47, 
    48, 
    54, 
    63, 
    64, 
    66, 
    68, 
    113, 
    115, 
    160, 
    162, 
    207, 
    209, 
    254, 
    256, 
    301, 
    303, 
    348, 
    350, 
    395, 
    397, 
    442, 
    444, 
    489, 
    491, 
    536, 
    538, 
    583, 
    585, 
    630, 
    632, 
    677, 
    679, 
    724, 
    726, 
    771, 
    773, 
    818, 
    820, 
    865, 
    867, 
    912, 
    914, 
    959, 
    961, 
    1006, 
    1008, 
    1053, 
    1055, 
    1100, 
    1102, 
    1147, 
    1149, 
    1194, 
    1196, 
    1241, 
    1243, 
    1288, 
    1290, 
    1335, 
    1337, 
    1382, 
    1384, 
    1429, 
    1431, 
    1476, 
    1478, 
    1523, 
    1525, 
    1570, 
    1572, 
    1617, 
    1619, 
    1664, 
    1666, 
    1711, 
    1713, 
    1758, 
    1760, 
    1805, 
    1807, 
    1852, 
    1854, 
    1899, 
    1901, 
    1946, 
    1948, 
    1993, 
    1995, 
    2040, 
    2042, 
    2087, 
    2089, 
    2134, 
    2136, 
    2181, 
    2183, 
    2228, 
    2230, 
    2275, 
    2277, 
    2322, 
    2324, 
    2369, 
    2371, 
    2416, 
    2418, 
    2463, 
    2465, 
    2510, 
    2512, 
    2557, 
    2559, 
    2604, 
    2606, 
    2651, 
    2653, 
    2698, 
    2700, 
    2745, 
    2747, 
    2792, 
    2794, 
    2839, 
    2841, 
    2886, 
    2888, 
    2933, 
    2935, 
    2980, 
    2982, 
    3027, 
    3029, 
    3074
  ], 
  "node_row_ptr": [
    0, 
    1, 
    2, 
    3, 
    4, 
    5, 
    6, 
    7, 
    8, 
    9, 
    10, 
    11, 
    15, 
    16, 
    17, 
    18, 
    19, 
    20, 
    21, 
    22, 
    23, 
    24, 
    25, 
    27, 
    28, 
    29, 
    30, 
    31, 
    32, 
    33, 
    34, 
    35, 
    39, 
    40, 
    41, 
    42, 
    43, 
    44, 
    45, 
    46, 
    47, 
    48, 
    49, 
    51, 
    52, 
    53, 
    54, 
    55, 
    56, 
    57, 
    58, 
    59, 
    63, 
    64, 
    65, 
    66, 
    67, 
    68, 
    69, 
    70, 
    71, 
    72, 
    73, 
    75, 
    76, 
    77, 
    78, 
    79, 
    80, 
    81, 
    82, 
    83, 
    84, 
    85, 
    89, 
    90, 
    91, 
    92, 
    93, 
    94, 
    95, 
    96, 
    97, 
    98, 
    100, 
    101, 
    102, 
    103, 
    107, 
    108, 
    109, 
    110, 
    111, 
    112, 
    113, 
    114, 
    115, 
    116, 
    118, 
    119, 
    120, 
    121, 
    125, 
    126, 
    127, 
    128, 
    129, 
    130, 
    131, 
    132, 
    133, 
    134, 
    136, 
    137, 
    138, 
    139, 
    140, 
    141, 
    142, 
    143, 
    144, 
    148, 
    149, 
    150, 
    151, 
    152, 
    153, 
    154, 
    155, 
    156, 
    157, 
    159, 
    160, 
    161, 
    162, 
    166, 
    167, 
    168, 
    169, 
    170, 
    171, 
    172, 
    173, 
    174, 
    175, 
    177, 
    178, 
    179, 
    180, 
    184, 
    185, 
    186, 
    187, 
    188, 
    189, 
    190, 
    191, 
    192, 
    193, 
    195, 
    196, 
    197, 
    198, 
    199, 
    200, 
    201, 
    202, 
    203, 
    207, 
    208, 
    209, 
    210, 
    211, 
    212, 
    213, 
    214, 
    215, 
    216, 
    218, 
    219, 
    220, 
    221, 
    225, 
    226, 
    227, 
    228, 
    229, 
    230, 
    231, 
    232, 
    233, 
    234, 
    236, 
    237, 
    238, 
    239, 
    243, 
    244, 
    245, 
    246, 
    247, 
    248, 
    249, 
    250, 
    251, 
    252, 
    254, 
    255, 
    256, 
    257, 
    258, 
    259, 
    260, 
    261, 
    262, 
    266, 
    267, 
    268, 
    269, 
    270, 
    271, 
    272, 
    273, 
    274, 
    275, 
    277, 
    278, 
    279, 
    280, 
    284, 
    285, 
    286, 
    287, 
    288, 
    289, 
    290, 
    291, 
    292, 
    293, 
    295, 
    296, 
    297, 
    298, 
    302, 
    303, 
    304, 
    305, 
    306, 
    307, 
    308, 
    309, 
    310, 
    311, 
    313, 
    314, 
    315, 
    316, 
    317, 
    318, 
    319, 
    320, 
    321, 
    325, 
    326, 
    327, 
    328, 
    329, 
    330, 
    331, 
    332, 
    333, 
    334, 
    336, 
    337, 
    338, 
    339, 
    343, 
    344, 
    345, 
    346, 
    347, 
    348, 
    349, 
    350, 
    351, 
    352, 
    354, 
    355, 
    356, 
    357, 
    361, 
    362, 
    363, 
    364, 
    365, 
    366, 
    367, 
    368, 
    369, 
    370, 
    372, 
    373, 
    374, 
    375, 
    376, 
    377, 
    378, 
    379, 
    380, 
    384, 
    385, 
    386, 
    387, 
    388, 
    389, 
    390, 
    391, 
    392, 
    393, 
    395, 
    396, 
    397, 
    398, 
    402, 
    403, 
    404, 
    405, 
    406, 
    407, 
    408, 
    409, 
    410, 
    411, 
    413, 
    414, 
    415, 
    416, 
    420, 
    421, 
    422, 
    423, 
    424, 
    425, 
    426, 
    427, 
    428, 
    429, 
    431, 
    432, 
    433, 
    434, 
    435, 
    436, 
    437, 
    438, 
    439, 
    443, 
    444, 
    445, 
    446, 
    447, 
    448, 
    449, 
    450, 
    451, 
    452, 
    454, 
    455, 
    456, 
    457, 
    461, 
    462, 
    463, 
    464, 
    465, 
    466, 
    467, 
    468, 
    469, 
    470, 
    472, 
    473, 
    474, 
    475, 
    479, 
    480, 
    481, 
    482, 
    483, 
    484, 
    485, 
    486, 
    487, 
    488, 
    490, 
    491, 
    492, 
    493, 
    494, 
    495, 
    496, 
    497, 
    498, 
    502, 
    503, 
    504, 
    505, 
    506, 
    507, 
    508, 
    509, 
    510, 
    511, 
    513, 
    514, 
    515, 
    516, 
    520, 
    521, 
    522, 
    523, 
    524, 
    525, 
    526, 
    527, 
    528, 
    529, 
    531, 
    532, 
    533, 
    534, 
    538, 
    539, 
    540, 
    541, 
    542, 
    543, 
    544, 
    545, 
    546, 
    547, 
    549, 
    550, 
    551, 
    552, 
    553, 
    554, 
    555, 
    556, 
    557, 
    561, 
    562, 
    563, 
    564, 
    565, 
    566, 
    567, 
    568, 
    569, 
    570, 
    572, 
    573, 
    574, 
    575, 
    579, 
    580, 
    581, 
    582, 
    583, 
    584, 
    585, 
    586, 
    587, 
    588, 
    590, 
    591, 
    592, 
    593, 
    597, 
    598, 
    599, 
    600, 
    601, 
    602, 
    603, 
    604, 
    605, 
    606, 
    608, 
    609, 
    610, 
    611, 
    612, 
    613, 
    614, 
    615, 
    616, 
    620, 
    621, 
    622, 
    623, 
    624, 
    625, 
    626, 
    627, 
    628, 
    629, 
    631, 
    632, 
    633, 
    634, 
    638, 
    639, 
    640, 
    641, 
    642, 
    643, 
    644, 
    645, 
    646, 
    647, 
    649, 
    650, 
    651, 
    652, 
    656, 
    657, 
    658, 
    659, 
    660, 
    661, 
    662, 
    663, 
    664, 
    665, 
    667, 
    668, 
    669, 
    670, 
    671, 
    672, 
    673, 
    674, 
    675, 
    679, 
    680, 
    681, 
    682, 
    683, 
    684, 
    685, 
    686, 
    687, 
    688, 
    690, 
    691, 
    692, 
    693, 
    697, 
    698, 
    699, 
    700, 
    701, 
    702, 
    703, 
    704, 
    705, 
    706, 
    708, 
    709, 
    710, 
    711, 
    715, 
    716, 
    717, 
    718, 
    719, 
    720, 
    721, 
    722, 
    723, 
    724, 
    726, 
    727, 
    728, 
    729, 
    730, 
    731, 
    732, 
    733, 
    734, 
    738, 
    739, 
    740, 
    741, 
    742, 
    743, 
    744, 
    745, 
    746, 
    747, 
    749, 
    750, 
    751, 
    752, 
    756, 
    757, 
    758, 
    759, 
    760, 
    761, 
    762, 
    763, 
    764, 
    765, 
    767, 
    768, 
    769, 
    770, 
    774, 
    775, 
    776, 
    777, 
    778, 
    779, 
    780, 
    781, 
    782, 
    783, 
    785, 
    786, 
    787, 
    788, 
    789, 
    790, 
    791, 
    792, 
    793, 
    797, 
    798, 
    799, 
    800, 
    801, 
    802, 
    803, 
    804, 
    805, 
    806, 
    808, 
    809, 
    810, 
    811, 
    815, 
    816, 
    817, 
    818, 
    819, 
    820, 
    821, 
    822, 
    823, 
    824, 
    826, 
    827, 
    828, 
    829, 
    833, 
    834, 
    835, 
    836, 
    837, 
    838, 
    839, 
    840, 
    841, 
    842, 
    844, 
    845, 
    846, 
    847, 
    848, 
    849, 
    850, 
    851, 
    852, 
    856, 
    857, 
    858, 
    859, 
    860, 
    861, 
    862, 
    863, 
    864, 
    865, 
    867, 
    868, 
    869, 
    870, 
    874, 
    875, 
    876, 
    877, 
    878, 
    879, 
    880, 
    881, 
    882, 
    883, 
    885, 
    886, 
    887, 
    888, 
    892, 
    893, 
    894, 
    895, 
    896, 
    897, 
    898, 
    899, 
    900, 
    901, 
    903, 
    904, 
    905, 
    906, 
    907, 
    908, 
    909, 
    910, 
    911, 
    915, 
    916, 
    917, 
    918, 
    919, 
    920, 
    921, 
    922, 
    923, 
    924, 
    926, 
    927, 
    928, 
    929, 
    933, 
    934, 
    935, 
    936, 
    937, 
    938, 
    939, 
    940, 
    941, 
    942, 
    944, 
    945, 
    946, 
    947, 
    951, 
    952, 
    953, 
    954, 
    955, 
    956, 
    957, 
    958, 
    959, 
    960, 
    962, 
    963, 
    964, 
    965, 
    966, 
    967, 
    968, 
    969, 
    970, 
    974, 
    975, 
    976, 
    977, 
    978, 
    979, 
    980, 
    981, 
    982, 
    983, 
    985, 
    986, 
    987, 
    988, 
    992, 
    993, 
    994, 
    995, 
    996, 
    997, 
    998, 
    999, 
    1000, 
    1001, 
    1003, 
    1004, 
    1005, 
    1006, 
    1010, 
    1011, 
    1012, 
    1013, 
    1014, 
    1015, 
    1016, 
    1017, 
    1018, 
    1019, 
    1021, 
    1022, 
    1023, 
    1024, 
    1025, 
    1026, 
    1027, 
    1028, 
    1029, 
    1033, 
    1034, 
    1035, 
    1036, 
    1037, 
    1038, 
    1039, 
    1040, 
    1041, 
    1042, 
    1044, 
    1045, 
    1046, 
    1047, 
    1051, 
    1052, 
    1053, 
    1054, 
    1055, 
    1056, 
    1057, 
    1058, 
    1059, 
    1060, 
    1062, 
    1063, 
    1064, 
    1065, 
    1069, 
    1070, 
    1071, 
    1072, 
    1073, 
    1074, 
    1075, 
    1076, 
    1077, 
    1078, 
    1080, 
    1081, 
    1082, 
    1083, 
    1084, 
    1085, 
    1086, 
    1087, 
    1088, 
    1092, 
    1093, 
    1094, 
    1095, 
    1096, 
    1097, 
    1098, 
    1099, 
    1100, 
    1101, 
    1103, 
    1104, 
    1105, 
    1106, 
    1110, 
    1111, 
    1112, 
    1113, 
    1114, 
    1115, 
    1116, 
    1117, 
    1118, 
    1119, 
    1121, 
    1122, 
    1123, 
    1124, 
    1128, 
    1129, 
    1130, 
    1131, 
    1132, 
    1133, 
    1134, 
    1135, 
    1136, 
    1137, 
    1139, 
    1140, 
    1141, 
    1142, 
    1143, 
    1144, 
    1145, 
    1146, 
    1147, 
    1151, 
    1152, 
    1153, 
    1154, 
    1155, 
    1156, 
    1157, 
    1158, 
    1159, 
    1160, 
    1162, 
    1163, 
    1164, 
    1165, 
    1169, 
    1170, 
    1171, 
    1172, 
    1173, 
    1174, 
    1175, 
    1176, 
    1177, 
    1178, 
    1180, 
    1181, 
    1182, 
    1183, 
    1187, 
    1188, 
    1189, 
    1190, 
    1191, 
    1192, 
    1193, 
    1194, 
    1195, 
    1196, 
    1198, 
    1199, 
    1200, 
    1201, 
    1202, 
    1203, 
    1204, 
    1205, 
    1206, 
    1210, 
    1211, 
    1212, 
    1213, 
    1214, 
    1215, 
    1216, 
    1217, 
    1218, 
    1219, 
    1221, 
    1222, 
    1223, 
    1224, 
    1228, 
    1229, 
    1230, 
    1231, 
    1232, 
    1233, 
    1234, 
    1235, 
    1236, 
    1237, 
    1239, 
    1240, 
    1241, 
    1242, 
    1246, 
    1247, 
    1248, 
    1249, 
    1250, 
    1251, 
    1252, 
    1253, 
    1254, 
    1255, 
    1257, 
    1258, 
    1259, 
    1260, 
    1261, 
    1262, 
    1263, 
    1264, 
    1265, 
    1269, 
    1270, 
    1271, 
    1272, 
    1273, 
    1274, 
    1275, 
    1276, 
    1277, 
    1278, 
    1280, 
    1281, 
    1282, 
    1283, 
    1287, 
    1288, 
    1289, 
    1290, 
    1291, 
    1292, 
    1293, 
    1294, 
    1295, 
    1296, 
    1298, 
    1299, 
    1300, 
    1301, 
    1305, 
    1306, 
    1307, 
    1308, 
    1309, 
    1310, 
    1311, 
    1312, 
    1313, 
    1314, 
    1316, 
    1317, 
    1318, 
    1319, 
    1320, 
    1321, 
    1322, 
    1323, 
    1324, 
    1328, 
    1329, 
    1330, 
    1331, 
    1332, 
    1333, 
    1334, 
    1335, 
    1336, 
    1337, 
    1339, 
    1340, 
    1341, 
    1342, 
    1346, 
    1347, 
    1348, 
    1349, 
    1350, 
    1351, 
    1352, 
    1353, 
    1354, 
    1355, 
    1357, 
    1358, 
    1359, 
    1360, 
    1364, 
    1365, 
    1366, 
    1367, 
    1368, 
    1369, 
    1370, 
    1371, 
    1372, 
    1373, 
    1375, 
    1376, 
    1377, 
    1378, 
    1379, 
    1380, 
    1381, 
    1382, 
    1383, 
    1387, 
    1388, 
    1389, 
    1390, 
    1391, 
    1392, 
    1393, 
    1394, 
    1395, 
    1396, 
    1398, 
    1399, 
    1400, 
    1401, 
    1405, 
    1406, 
    1407, 
    1408, 
    1409, 
    1410, 
    1411, 
    1412, 
    1413, 
    1414, 
    1416, 
    1417, 
    1418, 
    1419, 
    1423, 
    1424, 
    1425, 
    1426, 
    1427, 
    1428, 
    1429, 
    1430, 
    1431, 
    1432, 
    1434, 
    1435, 
    1436, 
    1437, 
    1438, 
    1439, 
    1440, 
    1441, 
    1442, 
    1446, 
    1447, 
    1448, 
    1449, 
    1450, 
    1451, 
    1452, 
    1453, 
    1454, 
    1455, 
    1457, 
    1458, 
    1459, 
    1460, 
    1464, 
    1465, 
    1466, 
    1467, 
    1468, 
    1469, 
    1470, 
    1471, 
    1472, 
    1473, 
    1475, 
    1476, 
    1477, 
    1478, 
    1482, 
    1483, 
    1484, 
    1485, 
    1486, 
    1487, 
    1488, 
    1489, 
    1490, 
    1491, 
    1493, 
    1494, 
    1495, 
    1496, 
    1497, 
    1498, 
    1499, 
    1500, 
    1501, 
    1505, 
    1506, 
    1507, 
    1508, 
    1509, 
    1510, 
    1511, 
    1512, 
    1513, 
    1514, 
    1516, 
    1517, 
    1518, 
    1519, 
    1523, 
    1524, 
    1525, 
    1526, 
    1527, 
    1528, 
    1529, 
    1530, 
    1531, 
    1532, 
    1534, 
    1535, 
    1536, 
    1537, 
    1541, 
    1542, 
    1543, 
    1544, 
    1545, 
    1546, 
    1547, 
    1548, 
    1549, 
    1550, 
    1552, 
    1553, 
    1554, 
    1555, 
    1556, 
    1557, 
    1558, 
    1559, 
    1560, 
    1564, 
    1565, 
    1566, 
    1567, 
    1568, 
    1569, 
    1570, 
    1571, 
    1572, 
    1573, 
    1575, 
    1576, 
    1577, 
    1578, 
    1582, 
    1583, 
    1584, 
    1585, 
    1586, 
    1587, 
    1588, 
    1589, 
    1590, 
    1591, 
    1593, 
    1594, 
    1595, 
    1596, 
    1600, 
    1601, 
    1602, 
    1603, 
    1604, 
    1605, 
    1606, 
    1607, 
    1608, 
    1609, 
    1611, 
    1612, 
    1613, 
    1614, 
    1615, 
    1616, 
    1617, 
    1618, 
    1619, 
    1623, 
    1624, 
    1625, 
    1626, 
    1627, 
    1628, 
    1629, 
    1630, 
    1631, 
    1632, 
    1634, 
    1635, 
    1636, 
    1637, 
    1641, 
    1642, 
    1643, 
    1644, 
    1645, 
    1646, 
    1647, 
    1648, 
    1649, 
    1650, 
    1652, 
    1653, 
    1654, 
    1655, 
    1659, 
    1660, 
    1661, 
    1662, 
    1663, 
    1664, 
    1665, 
    1666, 
    1667, 
    1668, 
    1670, 
    1671, 
    1672, 
    1673, 
    1674, 
    1675, 
    1676, 
    1677, 
    1678, 
    1682, 
    1683, 
    1684, 
    1685, 
    1686, 
    1687, 
    1688, 
    1689, 
    1690, 
    1691, 
    1693, 
    1694, 
    1695, 
    1696, 
    1700, 
    1701, 
    1702, 
    1703, 
    1704, 
    1705, 
    1706, 
    1707, 
    1708, 
    1709, 
    1711, 
    1712, 
    1713, 
    1714, 
    1718, 
    1719, 
    1720, 
    1721, 
    1722, 
    1723, 
    1724, 
    1725, 
    1726, 
    1727, 
    1729, 
    1730, 
    1731, 
    1732, 
    1733, 
    1734, 
    1735, 
    1736, 
    1737, 
    1741, 
    1742, 
    1743, 
    1744, 
    1745, 
    1746, 
    1747, 
    1748, 
    1749, 
    1750, 
    1752, 
    1753, 
    1754, 
    1755, 
    1759, 
    1760, 
    1761, 
    1762, 
    1763, 
    1764, 
    1765, 
    1766, 
    1767, 
    1768, 
    1770, 
    1771, 
    1772, 
    1773, 
    1777, 
    1778, 
    1779, 
    1780, 
    1781, 
    1782, 
    1783, 
    1784, 
    1785, 
    1786, 
    1788, 
    1789, 
    1790, 
    1791, 
    1792, 
    1793, 
    1794, 
    1795, 
    1796, 
    1800, 
    1801, 
    1802, 
    1803, 
    1804, 
    1805, 
    1806, 
    1807, 
    1808, 
    1809, 
    1811, 
    1812, 
    1813, 
    1814, 
    1818, 
    1819, 
    1820, 
    1821, 
    1822, 
    1823, 
    1824, 
    1825, 
    1826, 
    1827, 
    1829, 
    1830, 
    1831, 
    1832, 
    1836, 
    1837, 
    1838, 
    1839, 
    1840, 
    1841, 
    1842, 
    1843, 
    1844, 
    1845, 
    1847, 
    1848, 
    1849, 
    1850, 
    1851, 
    1852, 
    1853, 
    1854, 
    1855, 
    1859, 
    1860, 
    1861, 
    1862, 
    1863, 
    1864, 
    1865, 
    1866, 
    1867, 
    1868, 
    1870, 
    1871, 
    1872, 
    1873, 
    1877, 
    1878, 
    1879, 
    1880, 
    1881, 
    1882, 
    1883, 
    1884, 
    1885, 
    1886, 
    1888, 
    1889, 
    1890, 
    1891, 
    1895, 
    1896, 
    1897, 
    1898, 
    1899, 
    1900, 
    1901, 
    1902, 
    1903, 
    1904, 
    1906, 
    1907, 
    1908, 
    1909, 
    1910, 
    1911, 
    1912, 
    1913, 
    1914, 
    1918, 
    1919, 
    1920, 
    1921, 
    1922, 
    1923, 
    1924, 
    1925, 
    1926, 
    1927, 
    1929, 
    1930, 
    1931, 
    1932, 
    1936, 
    1937, 
    1938, 
    1939, 
    1940, 
    1941, 
    1942, 
    1943, 
    1944, 
    1945, 
    1947, 
    1948, 
    1949, 
    1950, 
    1954, 
    1955, 
    1956, 
    1957, 
    1958, 
    1959, 
    1960, 
    1961, 
    1962, 
    1963, 
    1965, 
    1966, 
    1967, 
    1968, 
    1969, 
    1970, 
    1971, 
    1972, 
    1973, 
    1977, 
    1978, 
    1979, 
    1980, 
    1981, 
    1982, 
    1983, 
    1984, 
    1985, 
    1986, 
    1988, 
    1989, 
    1990, 
    1991, 
    1995, 
    1996, 
    1997, 
    1998, 
    1999, 
    2000, 
    2001, 
    2002, 
    2003, 
    2004, 
    2006, 
    2007, 
    2008, 
    2009, 
    2013, 
    2014, 
    2015, 
    2016, 
    2017, 
    2018, 
    2019, 
    2020, 
    2021, 
    2022, 
    2024, 
    2025, 
    2026, 
    2027, 
    2028, 
    2029, 
    2030, 
    2031, 
    2032, 
    2036, 
    2037, 
    2038, 
    2039, 
    2040, 
    2041, 
    2042, 
    2043, 
    2044, 
    2045, 
    2047, 
    2048, 
    2049, 
    2050, 
    2054, 
    2055, 
    2056, 
    2057, 
    2058, 
    2059, 
    2060, 
    2061, 
    2062, 
    2063, 
    2065, 
    2066, 
    2067, 
    2068, 
    2072, 
    2073, 
    2074, 
    2075, 
    2076, 
    2077, 
    2078, 
    2079, 
    2080, 
    2081, 
    2083, 
    2084, 
    2085, 
    2086, 
    2087, 
    2088, 
    2089, 
    2090, 
    2091, 
    2095, 
    2096, 
    2097, 
    2098, 
    2099, 
    2100, 
    2101, 
    2102, 
    2103, 
    2104, 
    2106, 
    2107, 
    2108, 
    2109, 
    2113, 
    2114, 
    2115, 
    2116, 
    2117, 
    2118, 
    2119, 
    2120, 
    2121, 
    2122, 
    2124, 
    2125, 
    2126, 
    2127, 
    2131, 
    2132, 
    2133, 
    2134, 
    2135, 
    2136, 
    2137, 
    2138, 
    2139, 
    2140, 
    2142, 
    2143, 
    2144, 
    2145, 
    2146, 
    2147, 
    2148, 
    2149, 
    2150, 
    2154, 
    2155, 
    2156, 
    2157, 
    2158, 
    2159, 
    2160, 
    2161, 
    2162, 
    2163, 
    2165, 
    2166, 
    2167, 
    2168, 
    2172, 
    2173, 
    2174, 
    2175, 
    2176, 
    2177, 
    2178, 
    2179, 
    2180, 
    2181, 
    2183, 
    2184, 
    2185, 
    2186, 
    2190, 
    2191, 
    2192, 
    2193, 
    2194, 
    2195, 
    2196, 
    2197, 
    2198, 
    2199, 
    2201, 
    2202, 
    2203, 
    2204, 
    2205, 
    2206, 
    2207, 
    2208, 
    2209, 
    2213, 
    2214, 
    2215, 
    2216, 
    2217, 
    2218, 
    2219, 
    2220, 
    2221, 
    2222, 
    2224, 
    2225, 
    2226, 
    2227, 
    2231, 
    2232, 
    2233, 
    2234, 
    2235, 
    2236, 
    2237, 
    2238, 
    2239, 
    2240, 
    2242, 
    2243, 
    2244, 
    2245, 
    2249, 
    2250, 
    2251, 
    2252, 
    2253, 
    2254, 
    2255, 
    2256, 
    2257, 
    2258, 
    2260, 
    2261, 
    2262, 
    2263, 
    2264, 
    2265, 
    2266, 
    2267, 
    2268, 
    2272, 
    2273, 
    2274, 
    2275, 
    2276, 
    2277, 
    2278, 
    2279, 
    2280, 
    2281, 
    2283, 
    2284, 
    2285, 
    2286, 
    2290, 
    2291, 
    2292, 
    2293, 
    2294, 
    2295, 
    2296, 
    2297, 
    2298, 
    2299, 
    2301, 
    2302, 
    2303, 
    2304, 
    2308, 
    2309, 
    2310, 
    2311, 
    2312, 
    2313, 
    2314, 
    2315, 
    2316, 
    2317, 
    2319, 
    2320, 
    2321, 
    2322, 
    2323, 
    2324, 
    2325, 
    2326, 
    2327, 
    2331, 
    2332, 
    2333, 
    2334, 
    2335, 
    2336, 
    2337, 
    2338, 
    2339, 
    2340, 
    2342, 
    2343, 
    2344, 
    2345, 
    2349, 
    2350, 
    2351, 
    2352, 
    2353, 
    2354, 
    2355, 
    2356, 
    2357, 
    2358, 
    2360, 
    2361, 
    2362, 
    2363, 
    2367, 
    2368, 
    2369, 
    2370, 
    2371, 
    2372, 
    2373, 
    2374, 
    2375, 
    2376, 
    2378, 
    2379, 
    2380, 
    2381, 
    2382, 
    2383, 
    2384, 
    2385, 
    2386, 
    2390, 
    2391, 
    2392, 
    2393, 
    2394, 
    2395, 
    2396, 
    2397, 
    2398, 
    2399, 
    2401, 
    2402, 
    2403, 
    2404, 
    2408, 
    2409, 
    2410, 
    2411, 
    2412, 
    2413, 
    2414, 
    2415, 
    2416, 
    2417, 
    2419, 
    2420, 
    2421, 
    2422, 
    2426, 
    2427, 
    2428, 
    2429, 
    2430, 
    2431, 
    2432, 
    2433, 
    2434, 
    2435, 
    2437, 
    2438, 
    2439, 
    2440, 
    2441, 
    2442, 
    2443, 
    2444, 
    2445, 
    2449, 
    2450, 
    2451, 
    2452, 
    2453, 
    2454, 
    2455, 
    2456, 
    2457, 
    2458, 
    2460, 
    2461, 
    2462, 
    2463, 
    2467, 
    2468, 
    2469, 
    2470, 
    2471, 
    2472, 
    2473, 
    2474, 
    2475, 
    2476, 
    2478, 
    2479, 
    2480, 
    2481, 
    2485, 
    2486, 
    2487, 
    2488, 
    2489, 
    2490, 
    2491, 
    2492, 
    2493, 
    2494, 
    2496, 
    2497, 
    2498, 
    2499, 
    2500, 
    2501, 
    2502, 
    2503, 
    2504, 
    2508, 
    2509, 
    2510, 
    2511, 
    2512, 
    2513, 
    2514, 
    2515, 
    2516, 
    2517, 
    2519, 
    2520, 
    2521, 
    2522, 
    2526, 
    2527, 
    2528, 
    2529, 
    2530, 
    2531, 
    2532, 
    2533, 
    2534, 
    2535, 
    2537, 
    2538, 
    2539, 
    2540, 
    2544, 
    2545, 
    2546, 
    2547, 
    2548, 
    2549, 
    2550, 
    2551, 
    2552, 
    2553, 
    2555, 
    2556, 
    2557, 
    2558, 
    2559, 
    2560, 
    2561, 
    2562, 
    2563, 
    2567, 
    2568, 
    2569, 
    2570, 
    2571, 
    2572, 
    2573, 
    2574, 
    2575, 
    2576, 
    2578, 
    2579, 
    2580, 
    2581, 
    2585, 
    2586, 
    2587, 
    2588, 
    2589, 
    2590, 
    2591, 
    2592, 
    2593, 
    2594, 
    2596, 
    2597, 
    2598, 
    2599, 
    2603, 
    2604, 
    2605, 
    2606, 
    2607, 
    2608, 
    2609, 
    2610, 
    2611, 
    2612, 
    2614, 
    2615, 
    2616, 
    2617, 
    2618, 
    2619, 
    2620, 
    2621, 
    2622, 
    2626, 
    2627, 
    2628, 
    2629, 
    2630, 
    2631, 
    2632, 
    2633, 
    2634, 
    2635, 
    2637, 
    2638, 
    2639, 
    2640, 
    2644, 
    2645, 
    2646, 
    2647, 
    2648, 
    2649, 
    2650, 
    2651, 
    2652, 
    2653, 
    2655, 
    2656, 
    2657, 
    2658, 
    2662, 
    2663, 
    2664, 
    2665, 
    2666, 
    2667, 
    2668, 
    2669, 
    2670, 
    2671, 
    2673, 
    2674, 
    2675, 
    2676, 
    2677, 
    2678, 
    2679, 
    2680, 
    2681, 
    2685, 
    2686, 
    2687, 
    2688, 
    2689, 
    2690, 
    2691, 
    2692, 
    2693, 
    2694, 
    2696, 
    2697, 
    2698, 
    2699, 
    2703, 
    2704, 
    2705, 
    2706, 
    2707, 
    2708, 
    2709, 
    2710, 
    2711, 
    2712, 
    2714, 
    2715, 
    2716, 
    2717, 
    2721, 
    2722, 
    2723, 
    2724, 
    2725, 
    2726, 
    2727, 
    2728, 
    2729, 
    2730, 
    2732, 
    2733, 
    2734, 
    2735, 
    2736, 
    2737, 
    2738, 
    2739, 
    2740, 
    2744, 
    2745, 
    2746, 
    2747, 
    2748, 
    2749, 
    2750, 
    2751, 
    2752, 
    2753, 
    2755, 
    2756, 
    2757, 
    2758, 
    2762, 
    2763, 
    2764, 
    2765, 
    2766, 
    2767, 
    2768, 
    2769, 
    2770, 
    2771, 
    2773, 
    2774, 
    2775, 
    2776, 
    2780, 
    2781, 
    2782, 
    2783, 
    2784, 
    2785, 
    2786, 
    2787, 
    2788, 
    2789, 
    2791, 
    2792, 
    2793, 
    2794, 
    2795, 
    2796, 
    2797, 
    2798, 
    2799, 
    2803, 
    2804, 
    2805, 
    2806, 
    2807, 
    2808, 
    2809, 
    2810, 
    2811, 
    2812, 
    2814, 
    2815, 
    2816, 
    2817, 
    2821, 
    2822, 
    2823, 
    2824, 
    2825, 
    2826, 
    2827, 
    2828, 
    2829, 
    2830, 
    2832, 
    2833, 
    2834, 
    2835, 
    2839, 
    2840, 
    2841, 
    2842, 
    2843, 
    2844, 
    2845, 
    2846, 
    2847, 
    2848, 
    2850, 
    2851, 
    2852, 
    2853, 
    2854, 
    2855, 
    2856, 
    2857, 
    2858, 
    2862, 
    2863, 
    2864, 
    2865, 
    2866, 
    2867, 
    2868, 
    2869, 
    2870, 
    2871, 
    2873, 
    2874, 
    2875, 
    2876, 
    2880, 
    2881, 
    2882, 
    2883, 
    2884, 
    2885, 
    2886, 
    2887, 
    2888, 
    2889, 
    2891, 
    2892, 
    2893, 
    2894, 
    2898, 
    2899, 
    2900, 
    2901, 
    2902, 
    2903, 
    2904, 
    2905, 
    2906, 
    2907, 
    2909, 
    2910, 
    2911, 
    2912, 
    2913, 
    2914, 
    2915, 
    2916, 
    2917, 
    2921, 
    2922, 
    2923, 
    2924, 
    2925, 
    2926, 
    2927, 
    2928, 
    2929, 
    2930, 
    2932, 
    2933, 
    2934, 
    2935, 
    2939, 
    2940, 
    2941, 
    2942, 
    2943, 
    2944, 
    2945, 
    2946, 
    2947, 
    2948, 
    2950, 
    2951, 
    2952, 
    2953, 
    2957, 
    2958, 
    2959, 
    2960, 
    2961, 
    2962, 
    2963, 
    2964, 
    2965, 
    2966, 
    2968, 
    2969, 
    2970, 
    2971, 
    2972, 
    2973, 
    2974, 
    2975, 
    2976, 
    2980, 
    2981, 
    2982, 
    2983, 
    2984, 
    2985, 
    2986, 
    2987, 
    2988, 
    2989, 
    2991, 
    2992, 
    2993, 
    2994, 
    2998, 
    2999, 
    3000, 
    3001, 
    3002, 
    3003, 
    3004, 
    3005, 
    3006, 
    3007, 
    3009, 
    3010, 
    3011, 
    3012, 
    3016, 
    3017, 
    3018, 
    3019, 
    3020, 
    3021, 
    3022, 
    3023, 
    3024, 
    3025, 
    3027, 
    3028, 
    3029, 
    3030, 
    3031, 
    3032, 
    3033, 
    3034, 
    3035, 
    3039, 
    3040, 
    3041, 
    3042, 
    3043, 
    3044, 
    3045, 
    3046, 
    3047, 
    3048, 
    3050, 
    3051, 
    3052, 
    3053, 
    3057, 
    3058, 
    3059, 
    3060, 
    3061, 
    3062, 
    3063, 
    3064, 
    3065, 
    3066, 
    3068, 
    3069, 
    3070, 
    3071, 
    3075, 
    3076, 
    3077, 
    3078, 
    3079, 
    3080, 
    3081, 
    3082, 
    3083, 
    3084, 
    3086, 
    3087, 
    3088, 
    3089, 
    3090, 
    3091, 
    3092, 
    3093, 
    3094, 
    3098, 
    3099, 
    3100, 
    3101, 
    3102, 
    3103, 
    3104, 
    3105, 
    3106, 
    3107, 
    3109, 
    3110, 
    3111, 
    3112, 
    3116, 
    3117, 
    3118, 
    3119, 
    3120, 
    3121, 
    3122, 
    3123, 
    3124, 
    3125, 
    3127, 
    3128, 
    3129, 
    3130, 
    3134, 
    3135, 
    3136, 
    3137, 
    3138, 
    3139, 
    3140, 
    3141, 
    3142, 
    3143, 
    3145, 
    3146, 
    3147, 
    3148, 
    3149, 
    3150, 
    3151, 
    3152, 
    3153, 
    3157, 
    3158, 
    3159, 
    3160, 
    3161, 
    3162, 
    3163, 
    3164, 
    3165, 
    3166, 
    3168, 
    3169, 
    3170, 
    3171, 
    3175, 
    3176, 
    3177, 
    3178, 
    3179, 
    3180, 
    3181, 
    3182, 
    3183, 
    3184, 
    3186, 
    3187, 
    3188, 
    3189, 
    3193, 
    3194, 
    3195, 
    3196, 
    3197, 
    3198, 
    3199, 
    3200, 
    3201, 
    3202, 
    3204, 
    3205, 
    3206, 
    3207, 
    3208, 
    3209, 
    3210, 
    3211, 
    3212, 
    3216, 
    3217, 
    3218, 
    3219, 
    3220, 
    3221, 
    3222, 
    3223, 
    3224, 
    3225, 
    3227, 
    3228, 
    3229, 
    3230, 
    3234, 
    3235, 
    3236, 
    3237, 
    3238, 
    3239, 
    3240, 
    3241, 
    3242, 
    3243, 
    3245, 
    3246, 
    3247, 
    3248, 
    3252, 
    3253, 
    3254, 
    3255, 
    3256, 
    3257, 
    3258, 
    3259, 
    3260, 
    3261, 
    3263, 
    3264, 
    3265, 
    3266, 
    3267, 
    3268, 
    3269, 
    3270, 
    3271, 
    3275, 
    3276, 
    3277, 
    3278, 
    3279, 
    3280, 
    3281, 
    3282, 
    3283, 
    3284, 
    3286, 
    3287, 
    3288, 
    3289, 
    3293, 
    3294, 
    3295, 
    3296, 
    3297, 
    3298, 
    3299, 
    3300, 
    3301, 
    3302, 
    3304, 
    3305, 
    3306, 
    3307, 
    3311, 
    3312, 
    3313, 
    3314, 
    3315, 
    3316, 
    3317, 
    3318, 
    3319, 
    3320, 
    3322, 
    3323, 
    3324, 
    3325, 
    3326, 
    3327, 
    3328, 
    3329, 
    3330, 
    3334, 
    3335, 
    3336, 
    3337, 
    3338, 
    3339, 
    3340, 
    3341, 
    3342, 
    3343, 
    3345, 
    3346, 
    3347, 
    3348, 
    3352, 
    3353, 
    3354, 
    3355, 
    3356, 
    3357, 
    3358, 
    3359, 
    3360, 
    3361, 
    3363, 
    3364, 
    3365, 
    3366, 
    3370, 
    3371, 
    3372, 
    3373, 
    3374, 
    3375, 
    3376, 
    3377, 
    3378, 
    3379, 
    3381, 
    3382, 
    3383, 
    3384, 
    3385, 
    3386, 
    3387, 
    3388, 
    3389, 
    3393, 
    3394, 
    3395, 
    3396, 
    3397, 
    3398, 
    3399, 
    3400, 
    3401, 
    3402, 
    3404, 
    3405, 
    3406, 
    3407, 
    3411, 
    3412, 
    3413, 
    3414, 
    3415, 
    3416, 
    3417, 
    3418, 
    3419, 
    3420, 
    3422, 
    3423, 
    3424, 
    3425, 
    3429, 
    3430, 
    3431, 
    3432, 
    3433, 
    3434, 
    3435, 
    3436, 
    3437, 
    3438, 
    3440, 
    3441, 
    3442, 
    3443, 
    3444, 
    3445, 
    3446, 
    3447, 
    3448, 
    3452, 
    3453, 
    3454, 
    3455, 
    3456, 
    3457, 
    3458, 
    3459, 
    3460, 
    3461, 
    3463, 
    3464, 
    3465, 
    3466, 
    3470, 
    3471, 
    3472, 
    3473, 
    3474, 
    3475, 
    3476, 
    3477, 
    3478, 
    3479, 
    3481, 
    3482, 
    3483, 
    3484, 
    3488, 
    3489, 
    3490, 
    3491, 
    3492, 
    3493, 
    3494, 
    3495, 
    3496, 
    3497, 
    3499, 
    3500, 
    3501, 
    3502, 
    3503, 
    3504, 
    3505, 
    3506, 
    3507, 
    3511, 
    3512, 
    3513, 
    3514, 
    3515, 
    3516, 
    3517, 
    3518, 
    3519, 
    3520, 
    3522, 
    3523, 
    3524, 
    3525, 
    3529, 
    3530, 
    3531, 
    3532, 
    3533, 
    3534, 
    3535, 
    3536, 
    3537, 
    3538, 
    3540, 
    3541, 
    3542, 
    3543, 
    3547, 
    3548, 
    3549, 
    3550, 
    3551, 
    3552, 
    3553, 
    3554, 
    3555, 
    3556, 
    3558, 
    3559, 
    3560, 
    3561, 
    3562, 
    3563, 
    3564, 
    3565, 
    3566, 
    3570, 
    3571, 
    3572, 
    3573, 
    3574, 
    3575, 
    3576, 
    3577, 
    3578, 
    3579, 
    3581, 
    3582, 
    3583, 
    3584, 
    3588, 
    3589, 
    3590, 
    3591, 
    3592, 
    3593, 
    3594, 
    3595, 
    3596, 
    3597, 
    3599, 
    3600, 
    3601, 
    3602, 
    3606, 
    3607, 
    3608, 
    3609, 
    3610, 
    3611, 
    3612, 
    3613, 
    3614, 
    3615, 
    3617, 
    3618, 
    3619, 
    3620, 
    3621, 
    3622, 
    3623, 
    3624, 
    3625, 
    3629, 
    3630, 
    3631, 
    3632, 
    3633, 
    3634, 
    3635, 
    3636, 
    3637, 
    3638, 
    3640, 
    3641, 
    3642, 
    3643, 
    3647, 
    3648, 
    3649, 
    3650, 
    3651, 
    3652, 
    3653, 
    3654, 
    3655, 
    3656, 
    3658, 
    3659, 
    3660, 
    3661, 
    3665, 
    3666, 
    3667, 
    3668, 
    3669, 
    3670, 
    3671, 
    3672, 
    3673, 
    3674, 
    3676, 
    3677, 
    3678, 
    3679, 
    3680, 
    3681, 
    3682, 
    3683, 
    3684, 
    3688, 
    3689, 
    3690, 
    3691, 
    3692, 
    3693, 
    3694, 
    3695, 
    3696, 
    3697, 
    3699, 
    3700, 
    3701, 
    3702, 
    3706, 
    3707, 
    3708, 
    3709, 
    3710, 
    3711, 
    3712, 
    3713, 
    3714, 
    3715, 
    3717, 
    3718, 
    3719, 
    3720, 
    3724, 
    3725, 
    3726, 
    3727, 
    3728, 
    3729, 
    3730, 
    3731, 
    3732, 
    3733, 
    3735, 
    3736, 
    3737, 
    3738, 
    3739, 
    3740, 
    3741, 
    3742, 
    3743, 
    3747, 
    3748, 
    3749, 
    3750, 
    3751, 
    3752, 
    3753, 
    3754, 
    3755, 
    3756, 
    3758, 
    3759, 
    3760, 
    3761, 
    3765, 
    3766, 
    3767, 
    3768, 
    3769, 
    3770, 
    3771, 
    3772, 
    3773, 
    3774, 
    3776, 
    3777, 
    3778, 
    3779, 
    3783, 
    3784, 
    3785, 
    3786, 
    3787, 
    3788, 
    3789, 
    3790, 
    3791, 
    3792, 
    3794, 
    3795, 
    3796, 
    3797, 
    3798, 
    3799, 
    3800, 
    3801, 
    3802, 
    3806, 
    3807, 
    3808, 
    3809, 
    3810, 
    3811, 
    3812, 
    3813, 
    3814, 
    3815, 
    3817, 
    3818, 
    3819, 
    3820, 
    3824, 
    3825, 
    3826, 
    3827, 
    3828, 
    3829, 
    3830, 
    3831, 
    3832, 
    3833, 
    3835, 
    3836, 
    3837, 
    3838, 
    3842, 
    3843, 
    3844, 
    3845, 
    3846, 
    3847, 
    3848, 
    3849, 
    3850, 
    3851, 
    3853, 
    3854, 
    3855, 
    3856
  ], 
  "heads": [
    [67, 0, 0], 
    [114, 0, 0], 
    [161, 0, 0], 
    [208, 0, 0], 
    [255, 0, 0], 
    [302, 0, 0], 
    [349, 0, 0], 
    [396, 0, 0], 
    [443, 0, 0], 
    [490, 0, 0], 
    [537, 0, 0], 
    [584, 0, 0], 
    [631, 0, 0], 
    [678, 0, 0], 
    [725, 0, 0], 
    [772, 0, 0], 
    [819, 0, 0], 
    [866, 0, 0], 
    [913, 0, 0], 
    [960, 0, 0], 
    [1007, 0, 0], 
    [1054, 0, 0], 
    [1101, 0, 0], 
    [1148, 0, 0], 
    [1195, 0, 0], 
    [1242, 0, 0], 
    [1289, 0, 0], 
    [1336, 0, 0], 
    [1383, 0, 0], 
    [1430, 0, 0], 
    [1477, 0, 0], 
    [1524, 0, 0], 
    [1571, 0, 0], 
    [1618, 0, 0], 
    [1665, 0, 0], 
    [1712, 0, 0], 
    [1759, 0, 0], 
    [1806, 0, 0], 
    [1853, 0, 0], 
    [1900, 0, 0], 
    [1947, 0, 0], 
    [1994, 0, 0], 
    [2041, 0, 0], 
    [2088, 0, 0], 
    [2135, 0, 0], 
    [2182, 0, 0], 
    [2229, 0, 0], 
    [2276, 0, 0], 
    [2323, 0, 0], 
    [2370, 0, 0], 
    [2417, 0, 0], 
    [2464, 0, 0], 
    [2511, 0, 0], 
    [2558, 0, 0], 
    [2605, 0, 0], 
    [2652, 0, 0], 
    [2699, 0, 0], 
    [2746, 0, 0], 
    [2793, 0, 0], 
    [2840, 0, 0], 
    [2887, 0, 0], 
    [2934, 0, 0], 
    [2981, 0, 0], 
    [3028, 0, 0], 
    [3075, 0, 0]
  ], 
  "attrs": {"mxnet_version": ["int", 10100]}
}